latihan4/best_model.tflite (tflite, 565104 bytes, 8 tensors)

arith.constant f4 [256]
000000 a4 4c 41 3c 88 d5 b2 bb a9 a9 1a bd 6d 2a bd 3b
       0.011798058 -0.005457584 -0.037759457 0.00577288
000010 c5 f8 72 bc bf 3c ea bc cc f2 12 bd 6e bf a5 bc
       -0.014829819 -0.02859342 -0.03587608 -0.020232882
000020 cb 69 0f bd 18 41 3e 3b d0 60 1e bc ca db 83 bd
       -0.035013 0.0029030498 -0.009666637 -0.06438406
000030 1c 4d 2f bc 6c ce 61 bc b8 9a 7c bd 28 a8 9c 3c
       -0.010699537 -0.013782125 -0.06167099 0.019123152
000040 a3 30 0b bd 2c 16 55 bd 2c e0 ab ba 25 1e ad bc
       -0.03398193 -0.052023098 -0.0013113073 -0.021132538
000050 47 e5 cc bc 12 8f 1d 3c 30 49 23 bd b2 e1 1a bd
       -0.025011672 0.00961663 -0.03986472 -0.037812896
000060 56 63 b3 bb ab 56 20 bd 82 0d 10 3b c1 70 27 bd
       -0.0054744883 -0.039145153 0.0021980708 -0.040879015
000070 c4 ef 07 bd 73 de 05 3b 7f c8 75 bd 92 1d 47 bd
       -0.033187643 0.002042678 -0.06000566 -0.048612185
000080 b7 cf f4 ba a2 4a fc 3b 30 26 a7 39 03 ac 29 bd
       -0.0018677627 0.0076993266 0.00031881174 -0.04142381
000090 93 1b 54 bd 5b f5 08 bd f4 a2 ee bc 72 c0 1e bd
       -0.05178411 -0.033437114 -0.029130436 -0.03875775
0000a0 ff 9f af bc ee fa 01 bc 55 73 1c bc d1 95 10 bd
       -0.021438597 -0.007933361 -0.009548982 -0.035299126
0000b0 04 1c 90 bb 2c dc f2 bc 95 0c d0 bc 83 54 35 bd
       -0.004397871 -0.029646002 -0.025396625 -0.04427005
0000c0 2b 38 96 bd b1 b8 c9 bc e6 dd e0 bc da 8d 86 bd
       -0.07334932 -0.0246242 -0.02744956 -0.06570025
0000d0 6b d3 8e bc 74 89 1a bd 04 d6 ef bc d2 4b a9 bb
       -0.017434796 -0.03772874 -0.029276855 -0.005166509
0000e0 20 c3 25 3b b1 8c 2b bd 15 60 47 bd 41 21 f5 bc
       0.0025293306 -0.04188222 -0.048675615 -0.029923083
0000f0 67 55 90 bc ae 5f 9e bc 39 a9 10 3c 7c 6d a7 ba
       -0.017618848 -0.019332733 0.008829408 -0.0012773718
000100 21 20 22 bb 69 c0 f0 bc 39 72 9d bc db cc 51 bc
       -0.0024738389 -0.029388623 -0.019219505 -0.012805189
000110 44 94 ec 3a b0 2f 45 bd ed b7 99 bc 60 97 44 3b
       0.0018049558 -0.04814118 -0.01876446 0.0029997453
000120 44 78 8b bc 1f 02 b4 bc de 05 d9 bb ca 20 bb bc
       -0.01702512 -0.021973668 -0.006623014 -0.022842783
000130 6c 47 97 bb 53 21 04 bd 01 5d 47 bb 3e d8 c2 bc
       -0.0046166684 -0.032258343 -0.0030420425 -0.023784753
000140 00 dd 1e bd e3 ae 85 bd 9e 81 29 bc d2 85 4b bd
       -0.03878498 -0.065274976 -0.010345845 -0.049688168
000150 a3 22 0c bd 8a f9 43 bd ea 37 3f 3b 7c b7 e2 bc
       -0.03421272 -0.0478454 0.0029177614 -0.027675383
000160 a9 9d 6e bc 9d 5a 39 bb 44 ef 04 bd 65 ae e9 bc
       -0.014563956 -0.002828277 -0.032454744 -0.02852554
000170 55 7b 12 bd 9f ca 24 bb 36 00 3b bd a8 c1 78 bb
       -0.03576215 -0.0025145186 -0.045654498 -0.0037957225
000180 f7 e1 e8 bc d5 b3 22 bd 8d 57 15 bd 0a 01 13 ba
       -0.028428061 -0.039722282 -0.036460448 -0.000560776
000190 c1 e6 3f bd 53 a2 cb 3b f9 37 4e bb 86 04 9e bc
       -0.046850923 0.006214419 -0.0031466468 -0.019289266
0001a0 fa 8d 3e bc 7b bf 1d bd 4c 78 43 bd 9e 0e 6a 3c
       -0.01163053 -0.038512688 -0.047722146 0.014285712
0001b0 1a af 02 bd d8 f3 17 bd 4c a1 09 bc 1e 10 40 bd
       -0.03190527 -0.037097782 -0.008400273 -0.04689037
0001c0 a2 67 4c bd b5 ac d2 bc f7 5d 9c bb 3d f3 ab bb
       -0.04990352 -0.025717119 -0.0047719437 -0.005247502
0001d0 a6 7c 78 3c d7 2c 30 bc 6b 26 7c bd 55 99 fc bc
       0.015166437 -0.010752878 -0.061560076 -0.030834833
0001e0 52 47 a7 bb f6 79 05 bd 09 f1 42 bc c1 a0 d2 bc
       -0.0051049376 -0.032587014 -0.011898288 -0.025711419
0001f0 40 40 52 3b 70 1d 6d bb 55 d4 9b 3b 5f 43 8a bd
       0.0032081753 -0.0036180876 0.0047555366 -0.06751131
000200 a8 ae 27 bd 7a d4 28 3c 37 55 88 3b c6 07 58 bd
       -0.04093805 0.010304565 0.004160549 -0.05274179
000210 4b ee e0 bc c0 77 33 bd 6a 9b c5 ba 46 bf 23 bc
       -0.027457377 -0.043815374 -0.0015076224 -0.009994334
000220 a4 c4 1c 3b d5 60 44 bd b8 8a 13 bd b0 bc eb b9
       0.0023920918 -0.04794391 -0.036020964 -0.00044963276
000230 cd b8 31 3a 03 98 20 bd 4d 67 f6 bc 9e 1f 4b bd
       0.00067795516 -0.03920747 -0.030078555 -0.0495907
000240 9b 1d a6 bc 48 83 fe 39 24 5e a7 3b 02 84 08 bd
       -0.020277789 0.00048544467 0.005107658 -0.033329017
000250 64 96 e1 b9 9a 19 32 3c be d4 41 3a a6 1b 02 3c
       -0.00043027394 0.010870362 0.0007394067 0.007941162
000260 b6 d1 30 bd 83 99 1a bd 84 b1 d4 bc cd a0 b5 bc
       -0.043168746 -0.037744056 -0.025963552 -0.022171402
000270 5e 92 23 ba e9 b5 e8 bc 87 d4 2b 3c 00 44 0a bd
       -0.0006239767 -0.028407054 0.010487682 -0.033756256
000280 5a 87 fa bc d4 68 0b bc 18 c7 ac bc e2 8a 0b bb
       -0.030582119 -0.00850888 -0.021091029 -0.0021292497
000290 98 5f cf bb 0b 9b 56 bc e3 c2 39 bc 1e e9 3a bd
       -0.0063285343 -0.013098489 -0.0113379685 -0.045632474
0002a0 32 80 7c bc 1f 43 24 bd f3 39 90 3b ff 1d 3d 3c
       -0.0154114235 -0.040103074 0.0044014393 0.011542796
0002b0 d6 7e 17 bc cc 9b b5 3b 69 e3 61 bc b4 c4 23 bd
       -0.009246549 0.005542254 -0.013787129 -0.039982513
0002c0 70 fe 51 bd b8 c8 69 bd c0 a7 6d bd 28 b0 22 bd
       -0.05126804 -0.057076186 -0.058021307 -0.039718777
0002d0 00 44 a0 bb 6c 20 9c 3c 5b 73 bd bb 14 6f fe bc
       -0.0048909187 0.019058429 -0.0057815737 -0.031058826
0002e0 8c 1a 0a bc 30 cb 10 bd 35 ea 25 3c c5 33 02 bc
       -0.008429181 -0.035350025 0.01012664 -0.007946913
0002f0 70 a9 0f bd fb 49 13 bd cb f7 25 bd 6f 96 4c bd
       -0.035073698 -0.035959225 -0.040519517 -0.049948152
000300 6d ab c4 3b 09 5d 0d 3b 90 33 a4 bc 44 9e a5 3b
       0.006001881 0.0021570346 -0.020044118 0.005054267
000310 63 22 f1 bc 4d 50 bc bc a2 27 1b bd 07 4f 46 bd
       -0.029435342 -0.02298751 -0.037879594 -0.04841521
000320 53 b2 15 bb d0 19 90 bc 51 47 21 bd 88 8b 86 3a
       -0.0022841885 -0.017590433 -0.039374653 0.0010264972
000330 57 2f 10 bc b5 98 4c bb 3c ea e2 3b 8a 4c 90 bb
       -0.008800349 -0.003121895 0.0069248956 -0.0044036554
000340 e3 ce 22 3b c0 56 23 bd b2 b0 0d bb 52 85 ae bc
       0.0024842552 -0.039877653 -0.0021620211 -0.021303806
000350 a9 52 8c bc 8b ab 89 3c 4e 7c ea bb 1e a8 1a bd
       -0.01712926 0.01680543 -0.0071559316 -0.037757985
000360 16 26 c2 3b e6 54 14 bc c5 8c 99 bc 93 0b 5e bc
       0.0059249504 -0.0090534445 -0.018743882 -0.013552564
000370 86 aa 28 bd ea 1c d9 bb a3 99 62 bc d0 e5 32 bd
       -0.04117825 -0.0066257613 -0.013830575 -0.043676198
000380 4a 89 71 bc 6d de 5e bd 7f 53 98 bc af 24 11 bd
       -0.014742205 -0.05441134 -0.018594502 -0.035435375
000390 cd 87 2a 3a ca ee ab 3b 99 67 2e bd af 0b 8a bb
       0.0006505221 0.0052469717 -0.042579267 -0.0042128186
0003a0 da 84 25 bd 10 66 5c bc d4 36 29 bd 5c 7f a2 bc
       -0.0404099 -0.013452068 -0.041312054 -0.01983612
0003b0 dc 27 b9 bc 55 ae 28 bd 96 c5 40 bc 7a 78 2e bd
       -0.022602014 -0.04118188 -0.011765858 -0.042595364
0003c0 ae f9 db bc df d5 a2 bb c5 3e da bc a6 60 20 bd
       -0.026852455 -0.004969343 -0.026641259 -0.03915467
0003d0 87 22 ec bc d0 07 14 bd b5 09 d9 bc f5 41 30 bc
       -0.028825058 -0.036140263 -0.026493886 -0.010757913
0003e0 7c ce c1 3a 09 48 bd bc a5 e5 7c bd 6f 49 eb bc
       0.0014786269 -0.023105638 -0.061742444 -0.02872154
0003f0 b4 b2 af bb 00 42 c3 ba 61 d6 c8 3c 79 3f 1d bd
       -0.0053618792 -0.0014896989 0.024516286 -0.03839061

arith.constant1 f4 [128]
000000 7c 23 a3 3e 53 f9 7b 3d 8b 62 60 3c 10 bb e6 3d
       0.3186301 0.06151707 0.0136953695 0.11266148
000010 01 76 95 bc b9 34 eb bd 48 3b 15 3d 86 d8 7f 3e
       -0.018244745 -0.114846654 0.036433488 0.24984941
000020 53 39 2f 3e a2 3b 85 bd 4b f9 10 3e a5 8d bf 3c
       0.17111711 -0.06505515 0.14157598 0.023382971
000030 22 f0 9b 3e b0 00 01 3e db cf ac 3d 18 b6 91 3d
       0.30456644 0.12597919 0.08438083 0.0711481
000040 1e 5d d0 bd be cc 0f 3d 1e 11 97 3e 60 91 0a 3e
       -0.10174011 0.035107367 0.29505247 0.13532019
000050 ac e8 95 3e 26 62 67 3e 81 4a b1 bd ed 65 0e be
       0.29279077 0.22596034 -0.086567886 -0.13906069
000060 d9 a4 09 bd 83 48 2e 3e cf c8 47 3e e5 2a 33 3d
       -0.033604477 0.17019849 0.19510196 0.04374208
000070 88 08 22 3e 42 91 33 3e fb 6b 2b 3e bb 8d 34 3c
       0.15823567 0.1753588 0.1674041 0.011020119
000080 1d 58 47 3e bd e5 48 3d c0 cc 05 3e 5a 97 97 3d
       0.19467206 0.04904722 0.13066387 0.07401915
000090 3b 42 83 3e 1f c7 bd 3d fd 98 5c 3d ae 67 f5 bc
       0.25636467 0.09266495 0.05385684 -0.029956665
0000a0 da 15 f3 bc 8b 21 fc bd 6b a0 63 3e 21 12 e7 3d
       -0.029673506 -0.12311085 0.22229163 0.11282755
0000b0 a2 98 f8 3c 5f f8 ec 3d ff 69 2e 3d 59 06 a7 3e
       0.030346218 0.115708105 0.042581555 0.3262203
0000c0 3e ef 32 3e 97 48 23 3d e4 99 b8 bc 25 ce 0f bd
       0.17474076 0.03986415 -0.022534318 -0.035108704
0000d0 d6 49 1b 3e e5 69 35 3e 22 b9 53 3e 20 f3 08 3e
       0.15164885 0.17716177 0.20676091 0.13373995
0000e0 07 53 10 3e 25 a7 e3 bd ef b3 5b be b9 cd af 3c
       0.14094172 -0.11115865 -0.21455358 0.0214604
0000f0 14 89 c2 be 46 be 34 3e e7 12 8e 3e 6d 8b ef 3d
       -0.37995207 0.17650709 0.27748796 0.11696515
000100 ce 32 c2 3d 89 71 7e 3c b4 e8 33 3e 88 99 d5 3c
       0.094823465 0.015529999 0.17569238 0.026074186
000110 39 9b 50 3d 56 08 df 3d 4a 05 c6 3d 69 fa 37 bd
       0.05092928 0.10890262 0.096689776 -0.044916544
000120 d0 5a a4 bd 0a 61 8d 3c ff aa 62 bd 5c d5 de 3b
       -0.080251336 0.017258186 -0.055338856 0.0068003368
000130 5a b6 7c 3e b2 7c 25 3e 7f dc b7 3d f9 7b d8 3d
       0.24678937 0.16160849 0.08977603 0.10570521
000140 6e 08 a5 3d 25 35 61 3e fa 0c 4a 3e b0 a2 cb 3d
       0.080582485 0.2199293 0.19731513 0.099431396
000150 72 6e e6 3d 19 02 3c 3d 92 ed 3d 3d 19 41 0a 3e
       0.112515345 0.045900438 0.046369143 0.13501395
000160 89 89 09 3e 22 80 1b bd a0 96 94 3d 81 5b dc 3d
       0.13431372 -0.037963994 0.07255292 0.107596405
000170 48 53 5a 3e d6 10 01 be eb bc b2 bd e1 9d 9b bc
       0.21320832 -0.12604079 -0.087274395 -0.018996181
000180 fc bb 8d be 49 75 1e 3d 9f 50 87 3e 4a e2 7e 3e
       -0.27682483 0.03868607 0.26428697 0.2489101
000190 a6 fe 0f 3e 0d f9 6c 3e 9a a5 71 3c 04 79 58 3e
       0.14061984 0.2314188 0.014748955 0.21139914
0001a0 1a 82 86 3d 60 26 ec 3d e9 11 57 3e d8 43 82 3e
       0.06567784 0.11530757 0.21002926 0.25442386
0001b0 33 d5 5b 3e d5 c7 35 3e 9e 5c 16 3e 62 5e f9 3d
       0.21468048 0.17752011 0.14683768 0.12176205
0001c0 16 23 12 3e 25 49 48 be db 1f 2c 3e 24 f9 5a 3e
       0.14271197 -0.19559152 0.16809027 0.21384102
0001d0 6c 5f d0 3d 83 2f 4b 3e 14 4b 7f 3e 93 40 3a bc
       0.1017445 0.19842343 0.24930984 -0.011367935
0001e0 4e 73 41 3d 73 aa 47 3e 79 bf 39 3d 94 82 57 be
       0.047229104 0.19498615 0.04534862 -0.21045905
0001f0 ac 4e 87 3d 68 3b 5a 3e 22 6e 81 3e 2e b8 26 3e
       0.06606802 0.21311724 0.25279337 0.16281196

arith.constant2 f4 [64]
000000 9c ee 48 3e f9 70 36 bf c6 8d 08 3f 23 72 6d 3e
       0.19622272 -0.7126613 0.5334133 0.23188071
000010 04 6e e4 3e 70 e4 93 3e bf 04 13 3f dd 52 fa bd
       0.44615185 0.2888522 0.57429117 -0.12222836
000020 f7 43 89 bf c4 0c 42 3f 13 32 5b 3f 9e 94 c0 ba
       -1.0723866 0.7580073 0.8562328 -0.0014692729
000030 0a 8d b0 3e 95 da f2 3e d8 9c 47 bf 87 4b 13 3f
       0.34482604 0.4743239 -0.779737 0.5753712
000040 3b d2 4f bf 89 9b ab be 90 23 d4 3e 8b d3 dd bd
       -0.8118016 -0.335171 0.41433382 -0.10831364
000050 27 5e d3 be 99 db 7f 3f ef 6e 93 3e 30 fc a0 bf
       -0.4128277 0.99944454 0.28795573 -1.2576962
000060 1c 2f 18 be 0d b3 95 3e da 4f 82 3f ce e8 52 3f
       -0.14861721 0.29238167 1.0180619 0.8238648
000070 81 dc 4b 3f 20 38 c7 be be 3a 94 3f d4 cb 90 3d
       0.7963334 -0.38910007 1.1580427 0.07070127
000080 dd 58 35 bd 1e 96 44 3d 71 53 8f 3d 32 45 cf 3e
       -0.0442742 0.047994725 0.06998337 0.4048248
000090 87 9e cf bf e9 f4 10 3f 5a 0a 4e 3f 7a 09 ea be
       -1.6220254 0.56623703 0.80484545 -0.45710355
0000a0 b3 7b 37 3e be 78 0b bf 5b f1 73 bf 83 e4 d7 be
       0.17918281 -0.5448111 -0.95290154 -0.42166528
0000b0 9f 68 89 be 52 a7 0f bf 9d f1 e2 3c de 1c 8d 3e
       -0.26837632 -0.56114686 0.0277031 0.27561086
0000c0 82 03 a8 bd d9 0e 49 bf 9d 11 cc bc 70 0b 8f bc
       -0.08203794 -0.7853828 -0.024910742 -0.017461509
0000d0 7a 65 01 c0 15 26 1f be d2 9f 78 be 64 90 b4 3b
       -2.0218186 -0.15541871 -0.24279717 0.0055103768
0000e0 fa 75 82 3f 8c 51 fc 3e 12 83 43 3f bc 47 81 be
       1.0192254 0.49280965 0.7637187 -0.2525004
0000f0 1f 81 4e be 8b ca 8f 3e 65 19 1b bf f0 c7 00 3f
       -0.20166443 0.28084216 -0.60585624 0.5030508

arith.constant3 f4 [8, 64]
000000 d0 d9 4a be 23 4a 45 be 72 af 95 3d e1 b1 37 bd
       -0.19809651 -0.19266562 0.07308854 -0.044847373
000010 a9 45 e7 3b 45 07 35 be 40 b4 08 be ba fd a7 bd
       0.0070578647 -0.17678554 -0.1335001 -0.082026914
000020 fa 9f f0 bc 35 28 09 be d7 76 3f be e2 1e fa 3d
       -0.029373158 -0.13394244 -0.18697678 0.12212922
000030 eb 92 a6 3c 4c 69 87 be 95 00 d2 3d d1 99 63 be
       0.020333728 -0.26447523 0.10254017 -0.22226645
000040 bb 09 8e 3d a2 4b 4f be bf 21 49 be fb 47 96 bd
       0.0693545 -0.20243695 -0.1964178 -0.07337948
000050 1e e4 48 be 94 1a fd bb 73 fb 81 3e 71 c5 5c 3d
       -0.1961827 -0.0077241156 0.25387153 0.053899232
000060 ac 67 bb bd de e7 a1 3d ad 50 65 bd e9 44 d9 3d
       -0.09150633 0.07905553 -0.05598514 0.10608847
000070 85 43 40 be c5 b3 89 3d b8 5f 7b bd cb 7f 05 3a
       -0.18775757 0.067237414 -0.06137058 0.000509259
000080 0e 5b 96 3d 49 5f 0d 3e 31 1e 55 3d 72 e4 07 be
       0.07341586 0.1380588 0.052030746 -0.13270739
000090 19 53 b7 bd 0c 09 15 3e c0 f2 5c be b2 d8 b3 3d
       -0.089513965 0.14554232 -0.21576977 0.08781566
0000a0 fe de 0c be f2 8a 0e bc 03 de 17 ba f4 46 25 be
       -0.1375694 -0.008700119 -0.0005793275 -0.16140348
0000b0 72 aa a2 3d 6b bc 88 3d 52 b6 57 bd ab 6a 0b be
       0.07942666 0.06676563 -0.05266411 -0.1361491
0000c0 97 b0 dc 3d 51 4e 66 be 7e ab de 3d e8 cb 25 be
       0.10775869 -0.22490813 0.10872553 -0.16191065
0000d0 2c 63 db bd 9a 18 ae 3d e6 59 07 3e f2 e4 f7 3d
       -0.10712275 0.08500786 0.13217887 0.12104215
0000e0 7b 80 c5 bc 3c ac 7c be 36 d7 1c 3c 6d e9 12 3d
       -0.024109116 -0.24675077 0.009572795 0.035867143
0000f0 b3 70 c6 bd b5 aa cf 3d 13 24 32 be 04 76 31 be
       -0.096894644 0.10139982 -0.17396574 -0.17330176
000100 8e a8 16 3e 00 9c 22 3d 4b 52 43 be 79 f9 8e be
       0.14712736 0.039699554 -0.19074361 -0.27924708
000110 b0 d8 c6 be a3 27 ce bd 10 5e de 3c d1 06 28 3d
       -0.38837194 -0.10066154 0.027144462 0.041022126
000120 ab 8a b7 3d 20 d7 49 be 1c 90 ce be 5f d8 ce 3d
       0.08961996 -0.1971097 -0.40344322 0.10099863
000130 13 75 19 3d 75 82 48 3c a0 31 19 3d 77 da 97 be
       0.037465166 0.012238135 0.03740084 -0.29658863
000140 23 04 4e 3d 0d 66 ae bc 4e 10 1e 3e d3 b4 08 be
       0.050296914 -0.021288896 0.15435907 -0.13350229
000150 b8 ea 96 3d eb 8d 34 be 29 40 09 3e 3d 11 97 3d
       0.07368988 -0.17632262 0.13403381 0.07376335
000160 19 66 0b 3e ec 76 46 be a5 bb 4f be 3d 8a 19 be
       0.13613166 -0.19381303 -0.20286424 -0.1499414
000170 f9 cd 0b bf af 34 c4 3d a4 06 a4 be 82 d7 09 bc
       -0.54611164 0.09580361 -0.32036316 -0.0084131975
000180 f7 53 93 be 5c bc 80 bc 88 75 e3 bd c9 a4 6c be
       -0.28774998 -0.015714817 -0.11106402 -0.23109736
000190 73 c8 55 3d d9 46 64 3d d4 74 3c be a8 b8 50 be
       0.052193116 0.055731628 -0.18403941 -0.20382941
0001a0 a0 c9 b4 be 78 18 41 3e fc 7f 81 bd e7 cf 0b 3d
       -0.35310078 0.1885699 -0.06323239 0.034133818
0001b0 c7 bc b1 bd 64 ff 0a 3d 84 01 ae 3d ff 48 88 bd
       -0.086785845 0.033934966 0.08496383 -0.06654548
0001c0 33 eb 8b be 72 b3 14 3d 9b 5f a4 bd 16 de c0 3d
       -0.2732788 0.036303945 -0.08026048 0.094173595
0001d0 37 06 ab 3d 88 77 ff 3d 75 60 b6 bd a9 f5 14 be
       0.08350795 0.12473971 -0.089051165 -0.14546837
0001e0 ed 5b 0b be a0 6d 8b bd 29 61 9e be fd 64 d7 3d
       -0.13609286 -0.06808019 -0.30933502 0.10517309
0001f0 8f 1b ae 3d 23 30 69 be 72 c7 48 3c f5 99 e9 3c
       0.0850135 -0.22772269 0.012254583 0.028515795
000200 28 9b 1c 3e ff bd 39 3d 6e 9e 53 be 27 0b 9c 3d
       0.15293562 0.04534721 -0.20665905 0.07619315
000210 4e fb 97 bd 45 2d 54 be 14 1e 1f be 6a df 07 3e
       -0.074209794 -0.20720394 -0.15538818 0.1326882
000220 88 06 37 3d 66 7b b6 be aa 8b d4 3d f9 3f 90 be
       0.044683963 -0.3564102 0.10378201 -0.28173807
000230 be 6d 2e 3e fa c8 84 be c0 fe 85 be 1a 79 90 3c
       0.17034051 -0.25934583 -0.2617092 0.01763587
000240 9a 24 a1 be 45 f7 1d 3d e7 ae a4 be 42 9d 81 3c
       -0.31473237 0.038565893 -0.3216469 0.015822057
000250 e6 ae 4c be b2 cd 29 3c e9 66 a3 bd a7 98 aa 3d
       -0.19988593 0.010363983 -0.07978613 0.083298974
000260 0c 2d 8e be 5d 2a 3e 3d 04 65 c8 3d 90 6e d6 3d
       -0.27768743 0.04642712 0.09784892 0.10470307
000270 db d6 f2 be cc 17 24 3e b6 55 82 bc 83 23 3f be
       -0.47429547 0.16024703 -0.01591001 -0.1866589
000280 75 37 b7 3c c5 e4 e6 3d 27 b7 6e be 74 30 c4 3d
       0.022365311 0.11274103 -0.23312055 0.09579554
000290 dc 65 4c be a6 52 8f be 62 4d 1e 3e dc db 9a 3d
       -0.19960731 -0.27992743 0.15459207 0.07561466
0002a0 33 3b 39 3d d3 98 2f 3e e7 dd 59 bd 2f 9f 4c 3d
       0.045222472 0.17148142 -0.05319014 0.049956497
0002b0 e6 68 f8 bd 95 93 df 3d 4a ca 7d bd 98 3c 2d 3e
       -0.12129383 0.10916821 -0.061960496 0.16917646
0002c0 af 37 47 bb 9d 7b d1 bd 22 a0 85 bd ce 3a 3b 3e
       -0.003039818 -0.102286555 -0.065246835 0.18284151
0002d0 9a 2a 23 be c1 3c 2e bd 94 b7 e3 bd ae 51 18 be
       -0.1593422 -0.04253841 -0.11118999 -0.14874908
0002e0 bf e6 94 3d bf 7b 1a bd 97 83 83 bd 11 e3 1a be
       0.07270574 -0.03771567 -0.06421583 -0.15125681
0002f0 0f 54 a6 bd a4 fd 94 be aa 2a 10 3e d4 49 ad be
       -0.08121502 -0.29099762 0.14078775 -0.3384539
000300 4c aa 9f 3c 0c d9 dc bd 2c 4e 96 be 65 c9 b6 bd
       0.019490384 -0.10783586 -0.29356515 -0.08925132
000310 d5 94 94 3d 2e 03 91 3d db e8 f9 3d 37 7c ba bd
       0.0725495 0.070806846 0.12202617 -0.09105723
000320 13 45 3f bc 06 3d a2 3d 0d ee 1f 3e 2d bd e8 3d
       -0.011674183 0.079217955 0.15618153 0.113642074
000330 8e 91 53 3e cb 64 51 be 17 c1 b3 bd d6 7e fc 3d
       0.20660993 -0.20448606 -0.08777063 0.123288795
000340 8f 9a 6f be 02 5f 2d be 18 5e 12 3e 1a 52 9d be
       -0.23398803 -0.16930774 0.14293706 -0.307267
000350 06 ce 53 be f3 0f ba 3d 4b fe fa bd d7 57 90 bd
       -0.2068406 0.09085073 -0.12255534 -0.07048004
000360 22 e1 2f 3e 45 85 1a 3c 7d ac 98 3d ee f4 ec 3d
       0.17175725 0.009431188 0.074547745 0.11570154
000370 26 00 42 be 31 76 1a be 74 9d d3 3c 40 b2 61 be
       -0.18945369 -0.15084149 0.025831915 -0.22040653
000380 aa 19 52 be 99 eb e7 bd 84 9e fb 3c 54 70 76 b9
       -0.20517603 -0.113242336 0.030715235 -0.00023502234
000390 56 53 1f be 92 d9 ca 3d cf 49 15 bc 36 a7 3e be
       -0.15559134 0.099047795 -0.009111836 -0.18618473
0003a0 58 56 fb 3b 69 2f 17 bd e3 fc c9 bc f5 01 36 be
       0.007670205 -0.03691045 -0.024656719 -0.17774184
0003b0 33 ba 6d be 04 fb 9c bd c1 1a 9c 3d 3a 79 88 bd
       -0.2321556 -0.07665065 0.076222904 -0.06663747
0003c0 7e 3c 6c 3c ac fc 8f be e5 fe 24 be d8 f3 a1 bd
       0.014418719 -0.2812246 -0.1611286 -0.07907838
0003d0 0f cc 25 be cb 0a 82 3d aa d3 a9 3d af 9c c3 3d
       -0.16191123 0.06349715 0.08292325 0.095513694
0003e0 99 f6 9c bd 4f 85 90 3c cd db 80 be 39 45 29 bd
       -0.07664222 0.017641691 -0.25167695 -0.04132578
0003f0 43 3a 30 be 64 92 cf 3d 66 3b bc 3d 9e 17 db 3d
       -0.17209725 0.10135344 0.09191017 0.10697864

arith.constant4 f4 [8]
000000 49 3f 52 3f f2 5b 38 40 c5 e6 c0 3f 41 f7 74 3f
       0.82127815 2.880612 1.5070425 0.9568978
000010 92 19 b0 bd 43 8a 3a 40 9b c0 eb 3d 3e fc 11 40
       -0.08598627 2.9146888 0.11511346 2.2810206

tfl.pseudo_qconst i1 [64, 128]
000000 f5 e2 02 f9 f6 d4 1a 38 f3 ea f6 17 1c 15 e4 e8
       -11 -30 2 -7 -10 -44 26 56 -13 -22 -10 23 28 21 -28 -24
000010 0a 35 f9 02 e1 46 c3 08 13 0b 25 f8 dc dd d3 f0
       10 53 -7 2 -31 70 -61 8 19 11 37 -8 -36 -35 -45 -16
000020 05 0d ea 08 0e 1f e6 1a 1c c8 31 f5 f0 ea e7 ef
       5 13 -22 8 14 31 -26 26 28 -56 49 -11 -16 -22 -25 -17
000030 1a 3b f5 1c 04 00 04 06 16 11 f7 fb 31 2f 13 05
       26 59 -11 28 4 0 4 6 22 17 -9 -5 49 47 19 5
000040 15 c8 f6 0d 0f 08 ff 09 7f 00 dc 2b 09 fb 0e fc
       21 -56 -10 13 15 8 -1 9 127 0 -36 43 9 -5 14 -4
000050 e8 09 1f dc 46 ec 10 ea 09 e5 10 e2 e1 31 e9 10
       -24 9 31 -36 70 -20 16 -22 9 -27 16 -30 -31 49 -23 16
000060 d5 ed 06 24 19 06 0f ff f0 f0 3f 0f 51 fa f5 e6
       -43 -19 6 36 25 6 15 -1 -16 -16 63 15 81 -6 -11 -26
000070 e5 23 4c 08 f1 1d eb 00 a5 02 fd 23 fd 0c 18 ca
       -27 35 76 8 -15 29 -21 0 -91 2 -3 35 -3 12 24 -54
000080 7f f2 f3 05 e2 f6 21 41 18 04 ff fc 3e dc 02 d2
       127 -14 -13 5 -30 -10 33 65 24 4 -1 -4 62 -36 2 -46
000090 ec 4c ff 16 05 0e e8 c5 02 1f 1d 2c 33 fa 0f c8
       -20 76 -1 22 5 14 -24 -59 2 31 29 44 51 -6 15 -56
0000a0 11 d9 ee 28 0a 47 30 1c e9 eb fd 01 72 d9 29 3b
       17 -39 -18 40 10 71 48 28 -23 -21 -3 1 114 -39 41 59
0000b0 20 17 11 9b 27 2c 0b fe 5c ea fc 24 d1 c5 2e ff
       32 23 17 -101 39 44 11 -2 92 -22 -4 36 -47 -59 46 -1
0000c0 07 fd ed 14 fd 42 10 ff e3 fd 15 e9 2d f5 05 1a
       7 -3 -19 20 -3 66 16 -1 -29 -3 21 -23 45 -11 5 26
0000d0 f2 08 30 50 27 f6 2b 09 18 d7 7e 24 fb 29 bc 1d
       -14 8 48 80 39 -10 43 9 24 -41 126 36 -5 41 -68 29
0000e0 ed 18 35 1a fe 23 26 31 02 26 37 31 7a 09 0c f3
       -19 24 53 26 -2 35 38 49 2 38 55 49 122 9 12 -13
0000f0 07 d2 c0 2d e9 d4 3d ed e5 1c 19 b2 d7 24 0d f9
       7 -46 -64 45 -23 -44 61 -19 -27 28 25 -78 -41 36 13 -7

tfl.pseudo_qconst1 i1 [128, 256]
000000 0e 09 02 c8 b7 f4 fe fb 07 d2 07 ff 0e e9 0a f6
       14 9 2 -56 -73 -12 -2 -5 7 -46 7 -1 14 -23 10 -10
000010 ee fe f3 c7 de 0b 05 20 f2 dc ac 01 db ca ea 02
       -18 -2 -13 -57 -34 11 5 32 -14 -36 -84 1 -37 -54 -22 2
000020 90 c9 b0 e5 fa 38 23 01 04 ab c1 38 04 ff fd 0f
       -112 -55 -80 -27 -6 56 35 1 4 -85 -63 56 4 -1 -3 15
000030 00 e8 01 25 cd fe 06 e6 fe 49 02 02 d5 47 cd f8
       0 -24 1 37 -51 -2 6 -26 -2 73 2 2 -43 71 -51 -8
000040 dc f9 17 bc af fe f0 82 05 c5 e4 d2 dd 01 d8 d7
       -36 -7 23 -68 -81 -2 -16 -126 5 -59 -28 -46 -35 1 -40 -41
000050 14 d2 f6 fe 2f fe cb 0f b9 fd fd f3 02 9b e2 f9
       20 -46 -10 -2 47 -2 -53 15 -71 -3 -3 -13 2 -101 -30 -7
000060 26 ff ff c6 fe b3 17 cf c1 01 d4 a3 ff fe 19 f8
       38 -1 -1 -58 -2 -77 23 -49 -63 1 -44 -93 -1 -2 25 -8
000070 00 09 ea 00 97 ef ff 02 ce 14 ea ec ff 99 9f 13
       0 9 -22 0 -105 -17 -1 2 -50 20 -22 -20 -1 -103 -97 19
000080 06 d0 f5 1f 14 fe d9 da bf 01 02 05 05 02 c0 e5
       6 -48 -11 31 20 -2 -39 -38 -65 1 2 5 5 2 -64 -27
000090 20 fd cd 02 f4 b1 fd ee fc f8 02 d1 9b dc 00 f8
       32 -3 -51 2 -12 -79 -3 -18 -4 -8 2 -47 -101 -36 0 -8
0000a0 02 f5 20 06 71 eb f7 01 c4 00 db 9c 0b d4 f4 02
       2 -11 32 6 113 -21 -9 1 -60 0 -37 -100 11 -44 -12 2
0000b0 02 02 fe fe f8 10 dd fe 2a a2 81 e2 01 02 30 03
       2 2 -2 -2 -8 16 -35 -2 42 -94 -127 -30 1 2 48 3
0000c0 ce 86 05 99 02 e0 fe f3 0e 14 fe 01 fd bc 2c d2
       -50 -122 5 -103 2 -32 -2 -13 14 20 -2 1 -3 -68 44 -46
0000d0 fa 02 a4 08 0f ff 16 01 05 cc 08 3a f5 3f d9 fe
       -6 2 -92 8 15 -1 22 1 5 -52 8 58 -11 63 -39 -2
0000e0 eb 02 f7 32 9b ad e9 af 02 b1 f9 ea d1 0c dc 02
       -21 2 -9 50 -101 -83 -23 -81 2 -79 -7 -22 -47 12 -36 2
0000f0 02 03 f0 d9 d8 d7 04 e7 d1 fd e0 f1 de 19 8e fe
       2 3 -16 -39 -40 -41 4 -25 -47 -3 -32 -15 -34 25 -114 -2

sequential_2_1/dense_8_1/MatMul i1 [256, 2000]
000000 00 f9 fe 02 ff 00 00 f9 00 fa ff 00 fd fe fc f1
       0 -7 -2 2 -1 0 0 -7 0 -6 -1 0 -3 -2 -4 -15
000010 03 f7 00 00 fc 02 e8 ff 00 fc 08 f9 eb fc 00 03
       3 -9 0 0 -4 2 -24 -1 0 -4 8 -7 -21 -4 0 3
000020 f8 00 01 05 fd fb ee 08 03 fe 00 fe ff 01 04 fd
       -8 0 1 5 -3 -5 -18 8 3 -2 0 -2 -1 1 4 -3
000030 02 01 05 fd ff fe 0a fc 00 06 09 fc 00 fd ff 00
       2 1 5 -3 -1 -2 10 -4 0 6 9 -4 0 -3 -1 0
000040 fe ff 00 fe ff fe fe 02 00 fd 00 fe fd fe 00 02
       -2 -1 0 -2 -1 -2 -2 2 0 -3 0 -2 -3 -2 0 2
000050 04 00 02 ff fe ff fd 00 01 01 00 ff fe ff fd fe
       4 0 2 -1 -2 -1 -3 0 1 1 0 -1 -2 -1 -3 -2
000060 00 fd 00 fc 01 ff fd ff ff 0c fb fa 00 00 00 ff
       0 -3 0 -4 1 -1 -3 -1 -1 12 -5 -6 0 0 0 -1
000070 fe ff fd fd fb 00 fc 00 ff 02 fd 01 22 fd 00 02
       -2 -1 -3 -3 -5 0 -4 0 -1 2 -3 1 34 -3 0 2
000080 f7 fd 04 ff 00 00 0f 01 ff 02 fe fb e9 00 00 00
       -9 -3 4 -1 0 0 15 1 -1 2 -2 -5 -23 0 0 0
000090 00 fe 00 ff fc 20 fe ff ff fd d3 01 04 02 01 00
       0 -2 0 -1 -4 32 -2 -1 -1 -3 -45 1 4 2 1 0
0000a0 05 00 06 fc fa ff ff e1 ef fe 0a fe fe 00 e9 fe
       5 0 6 -4 -6 -1 -1 -31 -17 -2 10 -2 -2 0 -23 -2
0000b0 00 00 ff fa ff fe ef 04 04 00 db 00 00 00 07 00
       0 0 -1 -6 -1 -2 -17 4 4 0 -37 0 0 0 7 0
0000c0 fa ff 00 fc f8 0c fd fd fd fe 02 00 fb 04 00 fc
       -6 -1 0 -4 -8 12 -3 -3 -3 -2 2 0 -5 4 0 -4
0000d0 fe fb 00 00 08 00 f4 fb f8 00 fe fb 00 01 00 00
       -2 -5 0 0 8 0 -12 -5 -8 0 -2 -5 0 1 0 0
0000e0 ff 01 06 03 f4 00 06 ff fc 00 00 00 fe 00 ff 00
       -1 1 6 3 -12 0 6 -1 -4 0 0 0 -2 0 -1 0
0000f0 07 01 fe f6 fe fe fe fa 00 ff fd 01 00 fe 02 fe
       7 1 -2 -10 -2 -2 -2 -6 0 -1 -3 1 0 -2 2 -2
