latihan4/model.tflite (tflite, 554440 bytes, 6 tensors)

arith.constant f4 [256]
000000 e6 67 94 bb e8 1d 87 bb 90 95 6c bc aa 9e 96 bc
       -0.004528987 -0.004123438 -0.014439955 -0.018386204
000010 a7 15 31 bc 81 b4 c4 bb d4 d4 ce bb 84 37 d0 bb
       -0.010808385 -0.006002963 -0.006311992 -0.006354274
000020 9a 36 ff 3a d7 d3 bd bc fd ad ea bc 1f 0a 80 bc
       0.0019471229 -0.023172302 -0.028647417 -0.015629826
000030 fa b6 c8 bc 1e 48 8b bc ca e1 8e bc e1 02 36 bc
       -0.024501313 -0.017002162 -0.017441649 -0.011109085
000040 61 9b c3 bc 4a 77 d8 bc b7 46 c3 bc 45 f4 27 bc
       -0.023877801 -0.026424069 -0.02383743 -0.0102511095
000050 a8 f8 88 bc bc 3c 37 bc ab 1b e7 bc 91 2a c5 bc
       -0.016720131 -0.011183914 -0.028211435 -0.024068149
000060 6f 5d bc bb 3f fa 66 bc ce d5 2a bc 0f f4 a7 ba
       -0.005748443 -0.014097749 -0.010426952 -0.0012813824
000070 02 14 25 bc 77 70 64 bc b7 78 64 bc fa 3a 4b bc
       -0.010075571 -0.013942829 -0.013944796 -0.012404198
000080 f6 b6 a2 bc 92 59 61 bc 72 01 5b bc 47 0f ad bc
       -0.019862633 -0.013754265 -0.013367044 -0.021125449
000090 b8 9c 3d bc 03 80 43 bc df 9a b5 bc 34 22 10 bc
       -0.011573009 -0.011932376 -0.022168575 -0.008797217
0000a0 3b b9 b4 bc 86 94 68 bc 71 14 69 bc 4c 0f 90 bc
       -0.022060981 -0.014195567 -0.014226065 -0.01758542
0000b0 a4 8c 44 bc 96 e1 a4 bc 51 1a 38 bc 35 0f db 3a
       -0.011996422 -0.020127099 -0.011236743 0.0016712906
0000c0 81 b6 8d bc 21 c6 b6 ba 83 0b 03 bc 7b b4 b6 bc
       -0.017298939 -0.0013944545 -0.00799835 -0.022302857
0000d0 64 2e 93 bc 1c 6e c8 bc 88 16 84 bc f9 e5 b9 bc
       -0.017966457 -0.024466567 -0.016124025 -0.022692667
0000e0 71 8a c1 bc 9f 00 9c bc 1e 82 6c bc 83 49 90 bc
       -0.023625584 -0.019043265 -0.014435319 -0.017613178
0000f0 90 86 1b bc 77 b2 6f bc 75 43 4f bc 6f 4e f0 ba
       -0.009492531 -0.014629952 -0.01265036 -0.0018333922
000100 1c d7 bb bc bf da a6 bc 9d fd 97 bc 9a 30 a5 bc
       -0.02292972 -0.020367978 -0.01855355 -0.020164777
000110 41 48 ac bc 4b ed 43 bc a8 db a3 ba 8d bb 20 ba
       -0.021030547 -0.0119584305 -0.0012501376 -0.0006131463
000120 0f 3d 40 bc 72 6a 95 bc f6 6e 90 bc 85 81 34 bb
       -0.0117333075 -0.018239234 -0.017631035 -0.002754302
000130 bc 59 69 bc 36 4d b7 bc 23 5c 94 bb f6 e8 bc bc
       -0.014242586 -0.022375684 -0.004527585 -0.023060303
000140 84 fd 4a bc 1b fc 80 bc 63 df 70 bb 08 45 a6 bc
       -0.012389544 -0.015745213 -0.0036754243 -0.020296589
000150 8a 5f 99 bc 13 09 85 bc 82 2f 82 bc 3b dc 42 bc
       -0.018722314 -0.016239678 -0.015891794 -0.011893327
000160 0a c3 54 bc 28 06 c6 bb 02 76 be bc a9 31 a0 bc
       -0.012985954 -0.0060432144 -0.02324963 -0.01955493
000170 d9 0c a4 bc f2 db d1 bc 1a 48 96 bc cc 5d 1e bc
       -0.020025657 -0.025617573 -0.018344928 -0.009665918
000180 10 8f 71 bc 84 3b b7 bb e1 56 2c bc f9 68 c0 bc
       -0.014743581 -0.0055918116 -0.01051876 -0.023487555
000190 07 78 e5 bc 93 50 8f bc 89 f0 98 bc 8f 6b 84 bc
       -0.028011335 -0.017494475 -0.018669384 -0.01616457
0001a0 a9 f2 5d bc 1b 84 9d bc ac b8 20 bc 4a e4 ec bb
       -0.013546624 -0.019228032 -0.009809654 -0.0072293626
0001b0 ba eb 8d bc de 7b 71 bc 48 57 f1 bb c7 fd 2e bc
       -0.017324317 -0.014739005 -0.007365141 -0.010680622
0001c0 ef 0e 82 bc c9 ff 6d bc a8 ba df bc 40 46 41 bc
       -0.015876262 -0.014526316 -0.027310684 -0.011796534
0001d0 ec 20 83 bb b2 22 b4 bc 9c 75 ba bc 47 82 5f bc
       -0.0040017273 -0.0219892 -0.022761159 -0.0136419
0001e0 4b 69 a8 bc 69 f7 bd bc 08 a7 d2 bb 7a 17 40 bc
       -0.02055802 -0.023189263 -0.006428603 -0.011724347
0001f0 b6 7d 49 bc 99 40 21 bc 8d b3 ed bb 02 14 70 bc
       -0.012298038 -0.009842061 -0.00725407 -0.014653208
000200 20 32 94 bc 47 22 2e bc 43 23 62 bc 6b 94 20 bc
       -0.018090308 -0.01062829 -0.013802352 -0.009801011
000210 21 99 8f bc 03 56 40 bc b3 00 dd ba 1a e3 2c bc
       -0.017529072 -0.011739257 -0.001686117 -0.010552192
000220 1d 83 70 bc ce 4f b0 bc a5 dd ae bc f6 1c 2b bc
       -0.014679697 -0.021522429 -0.021345923 -0.010443917
000230 d7 16 e4 b8 6b 73 76 bc f5 ad 87 bc 39 a8 f2 bc
       -0.000108761415 -0.015042166 -0.016562441 -0.02962123
000240 6c 58 be 3b 55 c2 6e bc 54 1f 5c bc b0 1b a1 bc
       0.0058088806 -0.0145727 -0.013435204 -0.019666523
000250 58 8c 22 bc a6 63 3b bc 98 2a 48 bc 70 73 44 bb
       -0.009921156 -0.011437332 -0.012217186 -0.0029976033
000260 4e 00 fb bb 06 d2 76 bc de 56 65 bc 7c 7a a2 bb
       -0.0076599484 -0.015064722 -0.0139977615 -0.004958449
000270 6d e1 80 bc 9b 08 9c bc 99 86 44 bc b8 9d ee bc
       -0.015732491 -0.019047072 -0.011994981 -0.02912794
000280 5e 73 1a bc 65 34 aa bc 88 d6 a8 bc ca c2 8d bc
       -0.00942692 -0.020776937 -0.020610109 -0.017304797
000290 ca 42 c0 3b 3c f4 6e bc f2 a1 94 bc 9a 3f ed bb
       0.005867337 -0.014584597 -0.018143628 -0.007240248
0002a0 31 a6 c4 bc 12 ae d1 ba 56 61 ef bb 08 e1 39 bc
       -0.024005027 -0.0015997312 -0.0073053045 -0.011345156
0002b0 0f ab 9b bc 90 f4 bb bc c8 cf 8d bc 39 1f a3 bc
       -0.019002466 -0.022943765 -0.017310992 -0.019912349
0002c0 7c e1 97 bc db 09 3d bc d0 97 a6 bc cc 7c d2 bb
       -0.018540137 -0.011537994 -0.020336062 -0.0064235684
0002d0 e1 ff 80 bc 0b 02 a0 bc 22 41 5e bc ee f3 ca bc
       -0.015747013 -0.019532224 -0.013565334 -0.024774518
0002e0 a5 6d 01 bc 2c ff c9 bc 2c 93 9f bc 94 51 6c bc
       -0.007899676 -0.024657808 -0.019479357 -0.014423747
0002f0 29 11 a2 bc c4 85 a9 bc 39 40 9a bc 20 16 4e bc
       -0.019783573 -0.020693667 -0.018829452 -0.012578517
000300 05 52 9b bc 71 0d 96 bb 49 f7 58 bc 16 14 72 ba
       -0.018960008 -0.004579239 -0.013242551 -0.00092345604
000310 ae 75 a1 bc 87 6f 9f bc 32 c9 50 bc 78 31 f6 bc
       -0.019709434 -0.01946236 -0.012743281 -0.030052885
000320 9e e4 48 bc 4a 27 0e bd 43 70 a1 bc 65 6b 8e bc
       -0.012261538 -0.034705438 -0.01970685 -0.017385194
000330 85 d3 1d b8 2d cc f7 bb 2d 16 95 bc 07 ae 05 bc
       -3.762871e-05 -0.0075621814 -0.01819905 -0.008159167
000340 32 01 a8 bc 54 a0 c6 bc 87 1b 43 bc 52 11 97 bc
       -0.020508382 -0.024246372 -0.0119084185 -0.018440876
000350 29 71 7a bc b1 34 8a 3b 5c d8 de bc 80 b0 8e bc
       -0.015285769 0.004217707 -0.027202778 -0.017418146
000360 75 c4 50 bc 38 46 18 bc 6b 91 c4 bc 5d 3c 9a bc
       -0.0127421515 -0.009294085 -0.023995122 -0.018827612
000370 f6 66 15 bc ad ab 1f 3b 8a 53 fc bc 06 3a 87 bb
       -0.009118786 0.0024363801 -0.030801553 -0.00412679
000380 5a f9 d3 bc 7e 7a 95 bc c3 b9 42 bc a4 ad eb 3a
       -0.025875736 -0.018246885 -0.011885109 0.0017980826
000390 f0 53 94 bb 55 2e da bc 2c 65 3c bc 66 05 62 bc
       -0.0045266077 -0.026633421 -0.011498731 -0.013795232
0003a0 4b 43 19 bc 0e f2 0a bc 65 9a cc bb a1 e4 6a bc
       -0.009354423 -0.008480562 -0.006243991 -0.014336736
0003b0 bf 46 3d 3b f8 a6 11 bb e6 a8 5b bc 08 f3 8f bc
       0.002888128 -0.0022224765 -0.013406968 -0.017571941
0003c0 cb 0f 9e bb b8 a9 78 bc bb e1 c2 ba 97 93 34 bc
       -0.00482366 -0.015177183 -0.0014868298 -0.011021516
0003d0 1f de 80 bc 79 78 72 bc 9b 10 a7 bc c8 44 50 bc
       -0.015730916 -0.014799231 -0.02039366 -0.012711711
0003e0 5e ef c6 bc 19 d1 9f bc c4 dd 46 bc a9 c9 1b bc
       -0.024284061 -0.019508885 -0.012137834 -0.009508529
0003f0 a1 05 19 bc b7 1b e9 bc ca 05 d1 bc 54 82 8d bc
       -0.009339721 -0.028455598 -0.025515456 -0.01727406

arith.constant1 f4 [128]
000000 b4 42 1a 3c 9c 13 5c 3c 68 a6 a6 3c 1d 96 d1 3c
       0.009415317 0.01343241 0.02034302 0.025584275
000010 4d 4a cb 3c bd b3 9e 3c 3a 2d 3a 3c 2a 1a f7 3c
       0.024815703 0.019372815 0.011363322 0.030163843
000020 c6 d9 df 3c 11 f9 0a 3d 5e d3 d8 3c c9 4d 1c 3c
       0.027325522 0.033928934 0.026467975 0.00954003
000030 e4 8c db 3c 31 d2 64 3c d5 d3 ed 3b 07 80 f1 3c
       0.02680058 0.013966129 0.0072579184 0.029479994
000040 a0 d5 aa 3c 6b 57 ba 3c a7 6e a1 3b 1e 1e 5c 3c
       0.020853817 0.022746762 0.004926521 0.013434915
000050 c0 1a 00 3d bb 26 02 3d 1e 9a 86 3c c8 cd a6 3c
       0.03127551 0.031775218 0.01643091 0.020361796
000060 e4 f3 79 3c e6 41 d3 3c 85 61 a1 3c 99 14 fc 3c
       0.015255902 0.025788259 0.019699821 0.03077154
000070 ab e0 96 3c a0 be 88 3c 44 ba 06 3d 33 cf 32 3c
       0.018417677 0.01669246 0.03289248 0.010913658
000080 93 39 d7 3b de 89 2a 3c e8 2f cb 3c 13 6d e4 3c
       0.0065681427 0.010408847 0.024803117 0.027884042
000090 33 47 d5 3c 3d a2 eb 3c f1 b9 d3 3c 0b 60 d5 3c
       0.026034927 0.028763885 0.0258455 0.026046773
0000a0 69 ff a0 3c c2 2a 1f 3c 16 82 8d 3c 86 3b 80 3c
       0.019653039 0.009714784 0.017273944 0.015653383
0000b0 7a f4 b5 3b f6 d1 c2 3c eb e7 72 3c 02 43 75 3c
       0.0055528255 0.023781758 0.014825801 0.014969589
0000c0 6a ce 84 3c 47 90 04 3d 9e 1b aa 3c 0f 20 2b 3c
       0.016211707 0.032364156 0.020765122 0.010444655
0000d0 7a 59 ec 3c 49 75 55 3c 09 7a 99 3c 0a 8f 8f 3c
       0.02885126 0.013028451 0.018734949 0.017524261
0000e0 1e ea f8 3b 7d 1d 13 3c d9 cb b5 3c 5d 02 95 3b
       0.0075962683 0.0089791985 0.022191929 0.004547401
0000f0 06 af bf 3c ab 07 32 3c 6c 0e ea 3b 47 a4 35 3c
       0.023398887 0.010866086 0.0071428325 0.01108653
000100 7e 3f 4f 3b c8 4a 0a 3d a3 23 d6 3c 28 e3 ff 3c
       0.0031623538 0.033762723 0.02614004 0.031236246
000110 e0 4f d7 3c 2f 3a b2 3c 91 33 ca 3c ad e0 61 3c
       0.026283205 0.02175626 0.024682792 0.013786477
000120 3b 1a eb 3c 1b 25 3a 3c 63 e2 a4 3c 5a 9d c3 3c
       0.028699031 0.011361386 0.02012748 0.023878742
000130 58 78 0c 3d 0e 67 35 3c 85 3b a6 3c 9d 15 18 3c
       0.034294456 0.011071933 0.020292053 0.009282497
000140 4c e3 e0 3b 70 a7 a6 3c d4 4f 80 3b 29 2b c1 3c
       0.0068630334 0.020343512 0.0039157663 0.02358015
000150 00 58 ee 3c 05 65 a2 3c 3b fc ac 3c 28 bc e8 3c
       0.029094696 0.01982356 0.021116367 0.028410032
000160 66 d2 03 3d f7 99 9d 3c 72 b5 4b 3c cc a4 da 3c
       0.032183073 0.019238455 0.012433397 0.02668991
000170 20 af be 3c 67 f1 ca 3c 87 75 b3 3c 7e 44 e8 3b
       0.023276865 0.024773313 0.021906627 0.007088243
000180 6b 70 85 3a d9 85 e7 3c 64 37 fa 3c e3 2f 30 3c
       0.0010180598 0.028262066 0.03054399 0.010753605
000190 ac 42 08 3d 72 88 d1 3c b5 20 c6 3c 8a 7b 0e 3d
       0.03326671 0.025577758 0.024185518 0.034785785
0001a0 b9 85 7e 3c 1d 41 59 3c 53 5f f1 3c ad b7 0a 3d
       0.015534812 0.013260153 0.0294644 0.033866573
0001b0 b4 22 37 3c ae a6 bb 3c 40 f6 fc 3c ca 5c 51 3b
       0.011177707 0.022906628 0.03087914 0.0031946176
0001c0 de 79 8c 3c 43 16 f4 3c bd 18 d1 3c f0 16 9b 3c
       0.017147955 0.029795771 0.025524491 0.018931836
0001d0 76 64 77 3b 56 8e a7 3c 87 8a 0c 3c 65 05 0a 3c
       0.0037749088 0.020453613 0.008577949 0.008424138
0001e0 14 bb 08 3c 63 2b 0f 3d 98 d9 d5 3b 2b 0b b3 3c
       0.008345384 0.034953486 0.0065261833 0.021855911
0001f0 97 85 8f 3b bb 29 a5 3c f1 da 07 3d 45 de bd 3c
       0.004379939 0.0201615 0.033167783 0.023177275

arith.constant2 f4 [8]
000000 af df 9e 3e 80 34 c7 3f d4 15 15 40 a0 41 82 3f
       0.31030032 1.5562897 2.3294573 1.0176277
000010 4a ab 88 bf de 7b d9 3f 39 40 d5 bf 76 a0 53 3e
       -1.0677273 1.6990926 -1.6660224 0.2066668

tfl.pseudo_qconst i1 [8, 128]
000000 32 17 9d bd 4c 14 3c ae 62 9c 3d 44 a2 fc 3e b8
       50 23 -99 -67 76 20 60 -82 98 -100 61 68 -94 -4 62 -72
000010 29 4c 23 ce 14 13 24 77 18 55 13 b3 a4 c0 d6 53
       41 76 35 -50 20 19 36 119 24 85 19 -77 -92 -64 -42 83
000020 ca e1 74 96 21 e1 8a 74 0d 29 3c 31 34 d5 b3 ba
       -54 -31 116 -106 33 -31 -118 116 13 41 60 49 52 -43 -77 -70
000030 a6 81 45 ed 83 b7 ab 02 32 22 3b a5 d4 36 e5 3f
       -90 -127 69 -19 -125 -73 -85 2 50 34 59 -91 -44 54 -27 63
000040 1e f9 3b 39 a4 49 7c cc 63 12 37 36 d0 2c 0c 39
       30 -7 59 57 -92 73 124 -52 99 18 55 54 -48 44 12 57
000050 ea 81 49 23 b0 3f 97 8f d0 5e bb 24 49 00 c8 e9
       -22 -127 73 35 -80 63 -105 -113 -48 94 -69 36 73 0 -56 -23
000060 5c d5 26 b3 e7 94 cd b3 48 09 84 a1 c0 02 aa 2b
       92 -43 38 -77 -25 -108 -51 -77 72 9 -124 -95 -64 2 -86 43
000070 24 e9 db 8e 10 b4 40 3c 31 ac 11 fa 05 c1 d0 a8
       36 -23 -37 -114 16 -76 64 60 49 -84 17 -6 5 -63 -48 -88
000080 cd a7 20 25 18 0c b8 2d 56 22 1a a6 35 a0 d4 23
       -51 -89 32 37 24 12 -72 45 86 34 26 -90 53 -96 -44 35
000090 2e 28 cb 9a 28 08 cc 4e ab 24 14 1f cb 38 31 b9
       46 40 -53 -102 40 8 -52 78 -85 36 20 31 -53 56 49 -71
0000a0 b9 b1 45 2c 2d 3d 19 1e f0 ba 07 ac ea 04 a0 d5
       -71 -79 69 44 45 61 25 30 -16 -70 7 -84 -22 4 -96 -43
0000b0 18 22 22 ee 33 1c cf f1 d2 9a 25 97 0d cb 81 ea
       24 34 34 -18 51 28 -49 -15 -46 -102 37 -105 13 -53 -127 -22
0000c0 d0 31 36 26 28 21 50 ce 41 be 1f 06 3f bd 10 db
       -48 49 54 38 40 33 80 -50 65 -66 31 6 63 -67 16 -37
0000d0 04 12 b4 48 09 ed 0b 3b 44 2f b8 32 3e 22 0c d8
       4 18 -76 72 9 -19 11 59 68 47 -72 50 62 34 12 -40
0000e0 c8 21 2a f3 5f 28 1a 47 15 f8 1b 31 b6 3e 2a af
       -56 33 42 -13 95 40 26 71 21 -8 27 49 -74 62 42 -81
0000f0 93 34 30 e9 a7 e8 de a1 c8 53 c8 0b af e2 3d 3b
       -109 52 48 -23 -89 -24 -34 -95 -56 83 -56 11 -81 -30 61 59

tfl.pseudo_qconst1 i1 [128, 256]
000000 b4 f1 e6 06 f2 0a e6 bd dd 00 04 da f4 00 00 ff
       -76 -15 -26 6 -14 10 -26 -67 -35 0 4 -38 -12 0 0 -1
000010 07 ff 00 fa e2 20 00 cd 2c 14 06 dd 11 12 00 f9
       7 -1 0 -6 -30 32 0 -51 44 20 6 -35 17 18 0 -7
000020 23 09 ed dd d1 7f eb f1 09 50 ff 41 22 da 0f 00
       35 9 -19 -35 -47 127 -21 -15 9 80 -1 65 34 -38 15 0
000030 c5 2c d1 fd d4 e8 b9 2c c5 ff bb 07 fc 22 1b ea
       -59 44 -47 -3 -44 -24 -71 44 -59 -1 -69 7 -4 34 27 -22
000040 00 37 06 02 00 dd f9 e2 f9 00 00 cf da 00 e2 00
       0 55 6 2 0 -35 -7 -30 -7 0 0 -49 -38 0 -30 0
000050 e4 03 20 00 4e 07 05 fc d8 08 00 47 e4 00 19 13
       -28 3 32 0 78 7 5 -4 -40 8 0 71 -28 0 25 19
000060 40 ee 17 00 01 ee 3c 12 fc ac f8 24 78 ca 02 36
       64 -18 23 0 1 -18 60 18 -4 -84 -8 36 120 -54 2 54
000070 02 23 cb b6 c9 ef 00 f0 a9 de e5 07 f3 c6 cb 35
       2 35 -53 -74 -55 -17 0 -16 -87 -34 -27 7 -13 -58 -53 53
000080 ff cd ec 26 f3 d0 ca 25 d5 02 45 06 21 11 11 00
       -1 -51 -20 38 -13 -48 -54 37 -43 2 69 6 33 17 17 0
000090 54 ff 27 00 04 28 bf fe 38 1a e4 12 c2 fe 09 00
       84 -1 39 0 4 40 -65 -2 56 26 -28 18 -62 -2 9 0
0000a0 2b 0d 00 01 f9 21 fa 07 00 d1 e6 ff 59 ff f0 d3
       43 13 0 1 -7 33 -6 7 0 -47 -26 -1 89 -1 -16 -45
0000b0 f6 ef 3a 33 e3 0c d7 01 cf 00 d0 34 ee 58 12 1a
       -10 -17 58 51 -29 12 -41 1 -49 0 -48 52 -18 88 18 26
0000c0 00 ec df 20 d4 00 e1 00 2f 00 e6 e5 eb 04 e4 0c
       0 -20 -33 32 -44 0 -31 0 47 0 -26 -27 -21 4 -28 12
0000d0 00 00 20 5b e1 0f 00 32 08 f7 1f 00 00 12 00 49
       0 0 32 91 -31 15 0 50 8 -9 31 0 0 18 0 73
0000e0 00 00 ef e7 d2 00 18 07 18 15 56 dd 9f ef 24 00
       0 0 -17 -25 -46 0 24 7 24 21 86 -35 -97 -17 36 0
0000f0 c7 ef 15 00 1c 1a d1 04 00 00 f4 fe cc 05 00 00
       -57 -17 21 0 28 26 -47 4 0 0 -12 -2 -52 5 0 0

sequential_1/dense_1/MatMul i1 [256, 2000]
000000 00 ff 00 fd 09 00 02 0b 09 14 0e ff 07 02 01 03
       0 -1 0 -3 9 0 2 11 9 20 14 -1 7 2 1 3
000010 15 0a 06 02 f0 f8 09 ff 00 f8 1a ff 14 f9 0b fa
       21 10 6 2 -16 -8 9 -1 0 -8 26 -1 20 -7 11 -6
000020 fe 00 11 fa f9 f9 15 fa 1e 17 05 04 0b 00 fe 0d
       -2 0 17 -6 -7 -7 21 -6 30 23 5 4 11 0 -2 13
000030 01 02 f4 0f f3 08 fb 0b 04 06 05 00 00 fd 09 13
       1 2 -12 15 -13 8 -5 11 4 6 5 0 0 -3 9 19
000040 f2 07 fa 0b 03 04 fa 00 fc 0c 01 0d 1f fb 07 ff
       -14 7 -6 11 3 4 -6 0 -4 12 1 13 31 -5 7 -1
000050 00 fd 08 10 fc fb fb 18 05 ff 00 09 01 06 07 00
       0 -3 8 16 -4 -5 -5 24 5 -1 0 9 1 6 7 0
000060 ff fd 00 0c 04 00 00 00 f4 0a ee ee 29 01 04 e6
       -1 -3 0 12 4 0 0 0 -12 10 -18 -18 41 1 4 -26
000070 f8 02 08 ff 22 fd fd 00 ff 00 0b 00 21 01 27 fb
       -8 2 8 -1 34 -3 -3 0 -1 0 11 0 33 1 39 -5
000080 00 01 ff 01 fb 00 09 05 01 40 02 fc fd 01 fd f7
       0 1 -1 1 -5 0 9 5 1 64 2 -4 -3 1 -3 -9
000090 00 00 00 ff fc e4 0b 04 f9 04 f3 00 04 02 ee ff
       0 0 0 -1 -4 -28 11 4 -7 4 -13 0 4 2 -18 -1
0000a0 00 00 10 fe fb fd fd dd fe 09 10 fe fd ff db 0c
       0 0 16 -2 -5 -3 -3 -35 -2 9 16 -2 -3 -1 -37 12
0000b0 fc 00 fe 05 01 01 ea 02 06 00 e7 00 00 00 10 08
       -4 0 -2 5 1 1 -22 2 6 0 -25 0 0 0 16 8
0000c0 01 04 fd 06 f0 fb fd 00 08 08 02 fd 0d 05 ff 03
       1 4 -3 6 -16 -5 -3 0 8 8 2 -3 13 5 -1 3
0000d0 fe 03 f6 04 0c f6 fd ff e3 fa 00 f4 fe 03 06 02
       -2 3 -10 4 12 -10 -3 -1 -29 -6 0 -12 -2 3 6 2
0000e0 03 12 f2 f2 0e 02 00 0e 02 ff ff 00 fe 03 00 f3
       3 18 -14 -14 14 2 0 14 2 -1 -1 0 -2 3 0 -13
0000f0 07 02 00 f8 00 fd 00 fc 07 f1 fb ff ff fc 02 15
       7 2 0 -8 0 -3 0 -4 7 -15 -5 -1 -1 -4 2 21
