latihan4/model.tflite (tflite, 565104 bytes, 8 tensors)

arith.constant f4 [256]
000000 fa c6 4b bc d6 1a 38 3a 78 bb 13 bc 26 96 8b bc
       -0.012437576 0.0007023042 -0.009016864 -0.01703937
000010 a4 6d 60 3b 68 81 9b bb 56 f8 ca bc 81 60 a3 bc
       0.0034245038 -0.004745651 -0.024776619 -0.019943478
000020 32 f4 5f bc 7e 03 b8 bc 50 9d d5 bc 70 2f b0 bc
       -0.013669061 -0.022462603 -0.026075989 -0.021506995
000030 a9 9d 56 bc d0 80 16 bc 7d ac da 3b 51 c7 a5 bc
       -0.013099113 -0.009185985 0.0066733942 -0.020236643
000040 eb be 3d bc d9 31 82 bc 15 ef 1b bb f2 ae c6 bc
       -0.011581163 -0.01589291 -0.0023793627 -0.024253342
000050 a6 0b 86 bc da e8 d4 bc a5 85 99 bc 2c 65 98 bc
       -0.016362976 -0.025989939 -0.018740484 -0.01860293
000060 a1 8c 90 bc 13 fb 0a bc 27 59 64 bc 6a 36 48 bc
       -0.017645182 -0.008482712 -0.013937271 -0.012220005
000070 77 39 96 bc 24 5c 61 bc c3 44 e0 bb 98 1b 9a bc
       -0.018337948 -0.013754878 -0.0068441345 -0.018811986
000080 93 a9 cd bc b9 12 57 bc 93 ba 12 bd 74 a3 c6 bb
       -0.025105273 -0.013127022 -0.035822462 -0.0060619656
000090 90 08 75 bc e4 b9 79 bc 7c 7a 93 bb 73 e8 ea bc
       -0.014955655 -0.015242074 -0.0045006853 -0.028675294
0000a0 c6 d2 c2 bb 1a 40 42 bc 7d 27 ec bc 85 f7 b4 bc
       -0.0059455363 -0.011856103 -0.028827423 -0.022090683
0000b0 9e e3 ed bb 7c 15 be bc 2c 11 b8 bc 77 2e e8 bc
       -0.0072598 -0.023203604 -0.022469126 -0.028342469
0000c0 3a 35 10 bb ae d4 64 bc 8e 38 ea bb ae 9a d0 bc
       -0.0022004382 -0.013966722 -0.007147855 -0.025464382
0000d0 b6 4b 7b bc ac c9 81 bc 35 8f b7 bc 25 05 c6 bc
       -0.015337875 -0.015843235 -0.022407154 -0.024172375
0000e0 f1 6b cf bc 55 89 b3 bc 49 29 b3 bc 73 28 bb bb
       -0.025320025 -0.021916071 -0.021870272 -0.005711609
0000f0 07 78 d0 bc 22 62 2f bc 45 83 c1 39 81 b9 ae bc
       -0.025447858 -0.010704549 0.00036909632 -0.02132869
000100 be f0 3b bc 3b 0b c2 bc af 76 19 bd 23 41 61 bc
       -0.011470972 -0.023686996 -0.0374667 -0.01374844
000110 3c e4 2e bc d3 8e 0b bd de 56 a2 bc c6 ab 9e bc
       -0.0106745325 -0.034071755 -0.019816812 -0.019369017
000120 ee 25 a3 bc 79 aa 97 bc 13 a6 36 bc e3 11 a7 bc
       -0.019915547 -0.018513905 -0.011147994 -0.020394271
000130 23 d3 d2 3b 25 36 a9 bc c5 f5 de bc 2f a2 6e bc
       0.006433861 -0.020655701 -0.027216801 -0.014565035
000140 c3 66 8a bc c7 06 14 bc 61 33 d9 bc fa 0c d1 bb
       -0.016894704 -0.009034819 -0.026513757 -0.0063797208
000150 bf 6a ef bc ee 05 03 bd 52 ab d0 bb f2 00 34 bc
       -0.029225705 -0.031988077 -0.006368079 -0.0109865535
000160 9f bd 19 bd c1 a2 17 bd 04 2c 74 bc 2a 56 5c bb
       -0.037534352 -0.03702045 -0.014903072 -0.0033620694
000170 a7 b0 d6 ba 4e 11 04 bd 1a 14 85 bc d5 53 4e bc
       -0.0016379551 -0.032243066 -0.016244937 -0.012593229
000180 f8 25 de bb 05 83 b8 bc d0 84 07 bc 45 83 c6 bc
       -0.0067794286 -0.022523412 -0.008271411 -0.024232516
000190 eb 28 54 bb 4b 2c 58 3a f6 98 21 bc 33 ba ad bc
       -0.0032373022 0.0008246346 -0.009863129 -0.02120695
0001a0 01 96 3e bc 23 be d6 bb 2e 88 55 bc f0 56 2f bc
       -0.011632443 -0.006553428 -0.013032956 -0.01070188
0001b0 00 ae 8e bc c8 a6 87 bc 9f 2c 87 bc 27 9c 83 bc
       -0.017416954 -0.01655902 -0.01650077 -0.01606567
0001c0 48 13 fd bb ba 48 e0 bc 07 46 bc bc c6 9e 06 bd
       -0.007723246 -0.027378429 -0.02298261 -0.032866262
0001d0 fa 89 42 bc ed bb 97 bb 60 01 b8 bc a6 35 91 bc
       -0.0118737165 -0.004630557 -0.022461593 -0.017725777
0001e0 1d 76 97 bc 28 af 62 bc bd 7c a6 bc 00 22 69 bc
       -0.018488938 -0.013835706 -0.020323152 -0.014229298
0001f0 f6 94 9f bc 3a fd 88 bc 61 30 ba bc bf 85 8f bc
       -0.01948021 -0.01672231 -0.022728147 -0.01751983
000200 69 0f 6d bc f8 f4 cd bb 51 1b c7 bc bb d2 18 bc
       -0.014469006 -0.006285306 -0.024305018 -0.009327586
000210 99 50 a4 bc c0 79 c6 bc de 60 61 bc b3 9d 9e bc
       -0.020057963 -0.024227977 -0.013756005 -0.019362306
000220 b5 26 29 bb d6 5f 89 bc 5a df 6d bc ed 5a 8f bc
       -0.0025810425 -0.016769331 -0.014518583 -0.017499411
000230 42 5d c6 bb f7 30 7f bc 29 ca 2c bc dc 36 85 bc
       -0.0060535977 -0.015575639 -0.010546246 -0.01626151
000240 42 86 6f bc 1b 34 b4 bc b5 d5 f4 bc cd c5 76 bc
       -0.014619412 -0.021997502 -0.02988706 -0.015061808
000250 af 8a d3 bc 56 89 88 bc 87 72 a6 bc 2f 5f bd bc
       -0.025822965 -0.01666705 -0.020318283 -0.023116676
000260 e0 20 82 bc f1 4b 55 bc 5a 76 5f bc 05 28 92 bc
       -0.015884817 -0.013018594 -0.013639057 -0.017841348
000270 19 89 06 bd a1 2f ab bc b1 10 cd bc 99 fe fc bc
       -0.03284559 -0.020896735 -0.025032373 -0.03088312
000280 b4 b7 68 bc bb a4 b8 bc 09 ca af bc c5 84 37 3a
       -0.0142039545 -0.022539487 -0.021458643 0.000700068
000290 78 b5 8e bc 6a a5 19 bb d6 cd d3 bb 98 44 a0 bc
       -0.017420515 -0.0023444542 -0.0064637465 -0.019563958
0002a0 75 e2 c5 bb 48 cb 93 bc 51 4f a4 bc 75 32 c9 bc
       -0.0060389587 -0.018041268 -0.020057352 -0.024560193
0002b0 2f b6 2c bc bf 7b 66 bc 22 8a 6e bc 58 bb 59 3a
       -0.010541483 -0.014067589 -0.014559301 0.00083058095
0002c0 fa a2 cc 39 c8 34 b6 bc 7f 8a ce bb f0 4a 30 bd
       0.0003903134 -0.022241965 -0.006303131 -0.043040216
0002d0 a8 7c 68 bc 3d 9a ca bc c7 c8 4f bc f5 73 a8 bc
       -0.014189877 -0.02473175 -0.012682146 -0.020563105
0002e0 e8 ba ad bc 89 0f 52 bc 14 ab 09 bc df 01 63 bb
       -0.021207288 -0.012821087 -0.008402605 -0.0034638566
0002f0 b9 b2 ae bc dc 97 a8 bc 63 5a 6e bc 1e 3f cb bb
       -0.021325456 -0.020580225 -0.014547917 -0.0062025925
000300 ee 1b 21 bc 70 46 65 bc 32 46 a2 bc 05 58 c7 bc
       -0.009833319 -0.013993844 -0.019808862 -0.024333963
000310 13 0c f4 bc 66 4e df bc 6c ff c0 bc 84 d7 37 bc
       -0.029790914 -0.027259063 -0.023559295 -0.0112208165
000320 33 10 98 bc 6b b1 6e bc 7e 3d 0a bd c2 38 56 bb
       -0.018562412 -0.014568667 -0.03375005 -0.003268764
000330 f9 af d7 bc 75 52 7c bc 08 c2 8f bc 58 da 1c bc
       -0.026329027 -0.015400519 -0.017548576 -0.009573542
000340 5b 2d b5 bc c0 ee 2f bc a8 72 a9 bc 11 23 ac bc
       -0.022116354 -0.010738075 -0.020684555 -0.021012815
000350 ca d0 77 bc 15 63 6d bc c5 9b 03 bc 37 f2 91 bc
       -0.015125463 -0.014488955 -0.008032744 -0.017815692
000360 d0 4d 45 bc ce 17 f5 bc 82 37 8f bc 5e e6 ae bc
       -0.012042478 -0.029918578 -0.017482523 -0.021350082
000370 58 82 a7 bc 1e 11 e9 bc 77 4b 68 bc c5 df c1 bc
       -0.020447895 -0.028450545 -0.0141781485 -0.023666272
000380 d7 49 1c bc 83 74 aa bc 7f 40 b1 bc 4d 8a 30 bc
       -0.009539089 -0.02080751 -0.0216372 -0.010775161
000390 9b 99 b9 bc fb 6e 0a bd 51 02 83 bc a9 40 1c bc
       -0.022656253 -0.033797245 -0.015992315 -0.009536901
0003a0 c8 31 36 bc 44 53 b1 bc 28 f7 61 bc 5e 89 30 bc
       -0.011120267 -0.02164615 -0.013791837 -0.010774938
0003b0 86 fc 9c bb 0a 3b 09 bd 5d 98 83 bc d0 2d d8 ba
       -0.0047908453 -0.03350357 -0.016063863 -0.0016493145
0003c0 a9 87 e9 bc f7 fa d9 bc b7 27 c1 bc 0e 78 89 bc
       -0.02850707 -0.026608927 -0.023578508 -0.01678088
0003d0 39 29 c3 bb 71 5a 98 bc 06 78 4e bc 43 71 bb bb
       -0.005955842 -0.018597813 -0.012601858 -0.005720289
0003e0 52 da 84 bc 17 4b ad bc 54 a0 54 bc 1e 4b 99 bc
       -0.016217384 -0.02115397 -0.012977678 -0.018712576
0003f0 4c 2f 5b bc f8 ce b1 bc 2d 5e df bb 72 36 af bc
       -0.013377976 -0.021705136 -0.0068166465 -0.021388266

arith.constant1 f4 [128]
000000 3c e8 80 3b 82 71 ac 3c 29 8e 46 3d c7 34 2a bd
       0.0039339345 0.021050218 0.04847542 -0.04155424
000010 c7 24 f2 bc 7a b1 c2 bc 1f 46 21 3d 65 a0 05 3d
       -0.029558552 -0.023766268 0.039373513 0.032623667
000020 59 06 66 bd 75 95 c0 3c a3 f7 e5 bb 07 4b e2 3c
       -0.056158397 0.023508767 -0.007018046 0.027623666
000030 a8 8a c0 3c d9 0b 1d 3d f5 af 38 bd 54 8a d8 bb
       0.023503616 0.038341377 -0.04508968 -0.006608287
000040 58 e8 7c bb d2 a0 ea b9 a4 19 56 bc 7a 35 2f bc
       -0.0038590636 -0.00044751778 -0.013067637 -0.010693902
000050 ee 62 0f 3d f2 fd 47 bb 22 c7 bf ba 51 fe 44 3c
       0.035006456 -0.0030516353 -0.001463149 0.012023524
000060 3a 73 87 3b da cc f8 3b 39 cc 9b 3c fa 5e 44 3c
       0.004133609 0.0075927796 0.01901828 0.011985535
000070 08 90 ba ba cf f9 49 bc 16 88 11 bc 2d 78 0d 3c
       -0.0014233598 -0.012327625 -0.008882543 0.008634609
000080 9e 7a 55 3c 8b a2 02 3d 70 03 e8 3b a7 8c f2 3c
       0.0130297225 0.031893294 0.007080488 0.029608084
000090 0c 15 6f bc 8c 64 17 3c 4d c8 ae 3b 35 90 c5 3c
       -0.01459242 0.009240281 0.0053339363 0.024116615
0000a0 f8 9e 0e bc 0c 32 aa 3c 0a 29 02 3c 83 ef ef 3b
       -0.008704893 0.020775817 0.007944355 0.007322253
0000b0 23 1f 62 3c 68 6e 86 3b a3 44 bc 3c a0 5f f3 bb
       0.013801369 0.004102517 0.022981947 -0.007427171
0000c0 12 a0 05 bc 34 6d c1 bc 50 7f 3e 3c 81 f2 a8 3c
       -0.0081558395 -0.023611642 0.011627033 0.020623447
0000d0 61 3c 37 bd 92 1c 8d 3c 06 3f 85 bd ed 29 6c bd
       -0.044735316 0.017225537 -0.065061614 -0.05765717
0000e0 77 95 4d 3c 9d 08 c6 bc 71 e2 21 3d cf 80 e9 bc
       0.012547842 -0.024174029 0.039522592 -0.028503804
0000f0 ca af 03 bc 1d 37 10 3c 9f ff a0 3b 59 80 9c bc
       -0.008037517 0.0088022025 0.004913285 -0.01910417
000100 40 46 11 3c b2 48 a5 3c 9f 31 47 3c 5d 90 52 bc
       0.008866847 0.020176265 0.012157827 -0.012851802
000110 17 55 ed bb bb c0 a0 3c 53 17 ec bb 03 39 95 3b
       -0.0072428095 0.019623151 -0.007204929 0.0045539155
000120 2b 72 f2 3b b1 8a 8a bc b8 54 17 3c 6c 87 9d 3a
       0.007398864 -0.016911836 0.009236507 0.0012018508
000130 29 a4 a5 3c f3 d7 30 bd db e0 98 3c 16 de c8 bc
       0.02021988 -0.043174695 0.018661907 -0.024519961
000140 5a 0d 2a 3d 59 7e e1 3c f8 0d 56 bd a8 98 84 3b
       0.04151664 0.027526068 -0.052259415 0.0040465184
000150 36 52 1a 3d d2 d6 96 bb 1e 67 41 bb 58 97 0f 3c
       0.03767606 -0.0046032453 -0.0029510926 0.0087641105
000160 93 b2 c9 3c cc 58 86 3c ae a5 e3 3c 2c 46 d0 bc
       0.024621284 0.016399764 0.027788963 -0.025424086
000170 39 57 5b 3c 9e 0b e3 bb ad 99 2d 3c d5 be 8f bc
       0.013387495 -0.006928875 0.010595721 -0.01754705
000180 e4 15 3f bd 3f 6c bf bb ba ae b8 bc 9d 2f bc 3b
       -0.046651736 -0.0058417614 -0.022544254 0.0057429806
000190 d6 61 12 3b 43 31 22 bd 42 f3 5e 3c a7 f6 1d bb
       0.0022336147 -0.03959776 0.013607802 -0.0024103315
0001a0 ae e1 fe 3a 98 94 aa 3c df f4 04 3b 55 e1 11 3c
       0.001944592 0.020822808 0.0020287556 0.008903821
0001b0 3e 62 d9 3c f7 da 8b 3b 50 27 1b 3d 8c 6e 47 bb
       0.026536103 0.004268046 0.03787929 -0.0030430881
0001c0 53 e9 39 3c 48 c2 98 3c 21 6c ac bb 25 2f 7b bc
       0.011347133 0.018647328 -0.0052619134 -0.015331064
0001d0 da 4b eb 3a 23 4f 18 3c e9 23 fc 3b 9b 84 73 3c
       0.0017951683 0.009296211 0.0076947105 0.014863159
0001e0 cf f1 f4 3a 6a 2e 6c 3c f6 ae d7 ba 92 ae 64 3c
       0.0018687787 0.014415363 -0.0016455341 0.013957636
0001f0 47 d2 89 bc ba b8 99 3b b3 f7 20 bc b7 49 25 bc
       -0.0168239 0.0046912106 -0.009824681 -0.010088376

arith.constant2 f4 [64]
000000 b5 29 fc 3d 06 7c 13 3d 3c 32 8f 3d 05 de a5 3d
       0.123126425 0.03600695 0.06992003 0.080989875
000010 c9 a1 0b 3e 36 b0 e8 3d a3 0f 7b 3b 96 7f 86 bd
       0.13635935 0.113617346 0.003830888 -0.06567304
000020 cc e2 29 3e 3a 64 0a 3e ee 99 0f 3e fd ad d3 3d
       0.16590422 0.13514796 0.14023563 0.1033592
000030 93 06 8f 3d 36 60 78 3d ff 4e 14 3e a9 98 42 3e
       0.06983676 0.06063863 0.1448326 0.19003548
000040 5a df 98 3c 16 58 a6 3d 50 d1 e8 3c d4 4c 35 bc
       0.01866119 0.0812227 0.02842012 -0.0110656805
000050 ed 2f 13 3e 2b ed 38 3d 48 00 a9 3d db bc 0b 3b
       0.14373751 0.045148056 0.08252007 0.0021322283
000060 b6 d8 91 3d f0 57 d1 3d 83 16 97 3d 08 71 1a 3d
       0.071214125 0.10221851 0.07377341 0.03770545
000070 12 4e 03 3e de ba 83 3b 0c fb b9 3d 0c 59 39 3d
       0.1282275 0.004020079 0.090810865 0.045250937
000080 13 bf 68 3d b5 98 e1 3d e2 c6 ce 3d 21 1e 1c 3e
       0.056822848 0.11015455 0.10096528 0.15245868
000090 38 80 de 3c a1 3e 9b 3d aa 88 8c 3d e3 9a 53 3e
       0.027160749 0.07580305 0.06862004 0.20664553
0000a0 6a 32 f2 3d 88 00 f6 3d d9 35 c8 3d cb 6b 07 3e
       0.11826022 0.1201182 0.097758956 0.13224714
0000b0 53 58 dc 3d 0c 3e ea 3d 3c dc f8 3d 66 22 aa 3d
       0.10759034 0.11437616 0.121513814 0.08307342
0000c0 1e 8c b2 3d d1 06 80 3d 9e 1d f9 3d a0 3c b3 3d
       0.087181315 0.062513 0.12163852 0.08751798
0000d0 26 fd ac 3d ae c9 b4 3c 61 d2 0a 3e 4a 07 d3 3d
       0.08446722 0.022068825 0.13556816 0.10304125
0000e0 42 fc a5 3d 5e f7 b3 3d f2 c0 05 3e 0c 97 00 3e
       0.08104755 0.08787416 0.13061884 0.1255762
0000f0 65 94 d5 3d c4 ba f6 3c ab 8f 71 3e 68 72 c6 3c
       0.10428695 0.030118354 0.23589961 0.024224475

arith.constant3 f4 [8, 64]
000000 15 7c 82 ba 95 da a0 3d 19 5d a0 3e d0 fd 89 3e
       -0.0009955192 0.07854191 0.31321028 0.26951456
000010 a5 95 3f bf 7b 4b 95 3c d0 d6 25 bf 6a e1 01 bf
       -0.74837714 0.018224468 -0.647809 -0.5073458
000020 28 d7 2a bf 55 40 3f be 38 2b fb be a6 5c 83 3e
       -0.6673455 -0.18676884 -0.4905641 0.25656623
000030 11 f4 2e 3e a6 1f 76 3e de fa 0a 3d 80 62 da be
       0.17085291 0.2403551 0.03393065 -0.42653275
000040 1b e8 da be d3 a9 d8 be fe b9 81 be 55 68 0f 3f
       -0.42755207 -0.42317066 -0.25337213 0.56018573
000050 9b b3 0f 3f b0 41 a5 3e bb a1 60 bf 96 15 be be
       0.5613343 0.32276678 -0.8774678 -0.37125844
000060 c3 91 c2 be c1 a0 ac 3e 53 d7 9d be 37 e3 24 bf
       -0.38001832 0.33716395 -0.30828342 -0.644092
000070 da 09 21 3e 31 ed 00 bf 31 9f 20 3f df 2b f9 bd
       0.15726414 -0.50361925 0.62742907 -0.12166571
000080 9b 7d c2 3e 28 cf 2c bf 0d 28 3f be 60 a7 e6 be
       0.37986454 -0.67503595 -0.18667622 -0.45049572
000090 1c 9c 82 3e 5b fe 48 be fd 9e 8c be 47 f2 80 3e
       0.25509727 -0.19628279 -0.27465048 0.25184843
0000a0 b8 fc 86 bd 8b 38 75 3f cd 10 98 3d f8 96 19 3f
       -0.06591171 0.957894 0.074250795 0.59995985
0000b0 d3 f2 c2 3d cd 0e a3 be 29 50 00 bd f2 7a 36 bf
       0.09518971 -0.3184723 -0.031326447 -0.7128135
0000c0 9b 26 b7 be bc f1 8a be 6d c6 99 bd 83 82 84 bd
       -0.3577164 -0.27137554 -0.0750855 -0.06470206
0000d0 92 c6 40 bf 4d 50 01 bf cc 89 1f ba ce 8a 0e bf
       -0.75302994 -0.50513154 -0.0006085902 -0.5568055
0000e0 51 2b e4 3e 60 62 11 3f 4c aa 12 3f d5 d8 fb 3e
       0.44564298 0.56790733 0.572911 0.49188867
0000f0 b7 97 ad 3e 29 2d 9c 3e 62 55 de 3e e5 df b7 3c
       0.33904812 0.30503204 0.43424517 0.022445628
000100 a6 f8 ee bd b9 c7 fc 3e 57 fc 53 3e f4 92 87 bf
       -0.1166852 0.49371126 0.20701729 -1.0591722
000110 09 76 c5 3e 02 c5 4a 3d d1 d4 82 3f 96 3e 10 3e
       0.38566616 0.049504288 1.0221196 0.14086375
000120 85 61 db 3e d9 e9 7c 3e 82 e0 90 bf b3 b6 ab 3b
       0.4284784 0.24698581 -1.1318514 0.0052402853
000130 eb d4 77 3e 21 a5 4b bf 43 fd b6 bf 07 7c 3e 3e
       0.24202316 -0.7954884 -1.4296039 0.18602
000140 55 66 c9 3e 15 b8 cc 3e 0c 3f 03 3f 4f 0d 0a bf
       0.39335886 0.39984193 0.51268077 -0.5392656
000150 0b 9d 8f bf d3 4b 6d 3e 46 0b 97 3d ee fd b9 3d
       -1.1219801 0.23173456 0.07375197 0.09081636
000160 18 79 b9 3e a4 dc 07 bf f8 d8 e5 3e e4 28 91 3d
       0.362252 -0.53071046 0.44892097 0.070878774
000170 65 57 77 bf 6a 75 38 3e 7c c7 53 bf c8 21 1a 3f
       -0.9661773 0.1801354 -0.82726264 0.60207796
000180 1a 79 7e bf c9 5c 2b 3f 1f 19 24 3f 8e 20 27 bf
       -0.99403536 0.66938454 0.6410083 -0.6528405
000190 6d 30 0b be 2f f9 a1 3e e3 3c 2f 3f 20 75 68 bf
       -0.13592692 0.31635424 0.6845228 -0.9080372
0001a0 f7 58 c6 bd 3b 37 06 bf 45 5e 12 3f 8d 51 87 bf
       -0.096849374 -0.52428025 0.57175094 -1.0571762
0001b0 77 53 41 3d ff ad e0 be 69 4c a0 bf 89 8e 6b 3e
       0.04719874 -0.43882748 -1.2523319 0.23003592
0001c0 d8 47 0d 3f 35 ce 92 3e 96 d6 70 bf 3c b7 f4 3e
       0.5518775 0.28672948 -0.9407743 0.47796047
0001d0 ee a5 25 3e 05 d5 7f 3e 23 0f 3f 3f 51 9c f8 3e
       0.16176578 0.24983604 0.7463247 0.4855676
0001e0 6e 53 c0 3e a8 51 46 bf a8 ac 51 bf 82 26 d5 3e
       0.37563652 -0.7746835 -0.8190408 0.41630942
0001f0 d4 92 9d bf 6f 60 d8 be 50 4c 7a bf 20 27 59 3e
       -1.2310433 -0.42261073 -0.97772694 0.21206331
000200 b5 49 0a 3f 4b 74 70 bf 91 75 07 bf ba cd ae 3e
       0.5401872 -0.9392745 -0.5291377 0.34141332
000210 8e 29 ea 3e 40 58 86 3e 33 5a 11 bd a8 a6 da be
       0.4573483 0.26239204 -0.03548641 -0.42705274
000220 25 8f 1d 3f 84 49 cc 3e a1 b7 3e 3d d0 f7 30 bf
       0.61546546 0.39899838 0.04656184 -0.6912813
000230 05 89 60 bf 4f 80 5d bf 5c e4 11 3d ff 54 ce 3e
       -0.87709075 -0.8652391 0.03561817 0.40299222
000240 82 d9 bc 3e 33 61 a4 3e 4c f0 b4 be 08 38 9a be
       0.36884695 0.32105407 -0.35339582 -0.30120873
000250 ae a4 f6 3e 68 a0 07 bf 8c 66 95 bf 4c c2 94 3e
       0.48172516 -0.52979136 -1.167192 0.29054487
000260 b9 5c af 3e 78 24 60 3e b2 ae 02 3f d7 5a 87 3e
       0.3425043 0.21888912 0.51047814 0.26436493
000270 68 86 9b 3c 42 3c a5 3e d7 cd 04 bf 1c 16 22 bf
       0.018984988 0.32272536 -0.51876587 -0.63314986
000280 54 a5 b3 3e ef e6 2e 3f 64 71 5c bf 17 59 c5 3e
       0.35087073 0.68321127 -0.8611052 0.38544533
000290 9e 10 16 bf f6 7a 0e 3f 6c da 80 bf 14 1f 28 3e
       -0.58619106 0.55656374 -1.0066657 0.16418105
0002a0 95 33 72 3d 17 f8 80 bf 71 55 59 bf 74 74 14 be
       0.059131224 -1.0075711 -0.84896 -0.14497548
0002b0 44 42 18 3e b2 27 18 3f b4 d9 f1 3e 20 cb 94 3e
       0.14869028 0.5943557 0.47236407 0.29061222
0002c0 42 e4 e9 be 14 a0 7b bf c9 db 69 3e db a9 b9 3e
       -0.4568196 -0.98291135 0.22837748 0.36262402
0002d0 34 25 94 3e 3f b8 ac 3e 48 64 82 bf aa cc 1c 3f
       0.28934634 0.3373432 -1.0186853 0.6124979
0002e0 d8 55 9a bf ab 76 e7 be 1e d6 08 bf ef 16 2b bf
       -1.2057447 -0.45207724 -0.53451717 -0.6683187
0002f0 ca 8a 9f 3e 1f 94 6b bf f0 6b a2 3e 02 ca 0c bf
       0.31160575 -0.9202289 0.31722975 -0.5499574
000300 ab 12 0e bf 85 e4 ea be 74 35 9a be d9 70 d5 be
       -0.55497235 -0.45877472 -0.30118906 -0.41687658
000310 e7 93 25 bf 4e f8 11 bf 1a 1b 48 3f ec 5e 4c bf
       -0.64678806 -0.5701951 0.78166354 -0.7983234
000320 c8 e2 87 3e e9 f2 fb 3e 8c 3c 65 bf 0c 88 23 3e
       0.26540208 0.49208763 -0.8954551 0.15969867
000330 00 8f ad 3e f0 db 62 3e 19 31 55 3d 97 78 28 3f
       0.33898163 0.22154212 0.052048776 0.65809005
000340 3c 2c 40 bf 4f fb ae bd 54 ea af 3e 87 8b f4 be
       -0.75067496 -0.08544027 0.34358466 -0.477627
000350 7c 6e 11 3f fb b0 04 bf 48 fd 85 bf d3 ba 02 bf
       0.5680921 -0.5183255 -1.046792 -0.5106632
000360 55 db 33 bf 60 ab 04 bf 95 89 c2 be d4 c1 61 3e
       -0.7025655 -0.51824 -0.37995592 0.22046596
000370 92 94 10 be a1 9a 18 bf 52 9e 2f 3f 29 94 50 be
       -0.14119175 -0.59610945 0.6860095 -0.20369019
000380 d1 db 72 be 5b 58 0b bf fc af 0a bf 6c a8 07 3f
       -0.23716666 -0.54431695 -0.5417478 0.52991366
000390 94 7f 2e 3e 66 68 14 3f 4c 07 70 3f 35 1f cb 3d
       0.17040855 0.579718 0.93761134 0.09918062
0003a0 85 75 49 be 61 ca 6e 3f 02 a0 19 bf a8 d9 ca 3e
       -0.19673736 0.93277556 -0.6000978 0.39619184
0003b0 a1 f7 6f be 0f 1c 05 bf 60 57 d3 3e c0 5c 20 bf
       -0.23434307 -0.5199594 0.412776 -0.62641525
0003c0 33 06 04 3f 0c 84 23 bf be b2 41 bf ab 93 31 3f
       0.5157196 -0.6387336 -0.75663364 0.6936595
0003d0 c1 29 1e bf cb d3 97 be b2 16 4c 3f d3 5d 0d bf
       -0.6178246 -0.29653773 0.7972213 -0.5522129
0003e0 65 0f 20 bf f2 5a 1e 3f 55 aa 69 3e 3b ae df be
       -0.6252349 0.6185752 0.22818883 -0.43687615
0003f0 99 87 bc be 6b 73 2d bf 01 ee ca 3e 47 52 da 3e
       -0.36822203 -0.6775424 0.39634708 0.42640898

arith.constant4 f4 [8]
000000 22 fa c8 3e ad a6 dd 3f 04 db 4b 3f 6a e5 81 3f
       0.39253336 1.731649 0.79631066 1.0148137
000010 f2 a1 a4 bf b8 e2 1b 40 02 58 95 bf a2 f2 4c 3f
       -1.2861922 2.4357128 -1.1667483 0.8005773

tfl.pseudo_qconst i1 [64, 128]
000000 06 54 0d d2 c8 fd e2 f6 aa c7 b7 78 81 e8 de fa
       6 84 13 -46 -56 -3 -30 -10 -86 -57 -73 120 -127 -24 -34 -6
000010 ba ce 5f 2b e4 eb 1d 91 41 28 1c 3a d1 e0 1f 6f
       -70 -50 95 43 -28 -21 29 -111 65 40 28 58 -47 -32 31 111
000020 dd 59 c1 f0 29 3a cb f4 5b d6 eb 15 bc 0b ed d6
       -35 89 -63 -16 41 58 -53 -12 91 -42 -21 21 -68 11 -19 -42
000030 d8 eb f0 f7 92 e3 3a 42 e0 09 d7 ef 15 20 cb c2
       -40 -21 -16 -9 -110 -29 58 66 -32 9 -41 -17 21 32 -53 -62
000040 fc 63 b9 0e 0c e7 0e ea 37 f5 1f ee d0 39 01 4d
       -4 99 -71 14 12 -25 14 -22 55 -11 31 -18 -48 57 1 77
000050 3a 87 17 29 f9 0b 15 15 e0 e5 df 0c f7 93 e6 a6
       58 -121 23 41 -7 11 21 21 -32 -27 -33 12 -9 -109 -26 -90
000060 ed 26 21 ba 07 c6 2a a0 1b 2e d3 db fd 10 01 02
       -19 38 33 -70 7 -58 42 -96 27 46 -45 -37 -3 16 1 2
000070 15 4a a7 8c 2c 1a f4 ad b8 17 0f 41 35 b5 02 fe
       21 74 -89 -116 44 26 -12 -83 -72 23 15 65 53 -75 2 -2
000080 13 42 65 05 f0 db 3e 53 c5 65 49 04 e5 32 c9 1e
       19 66 101 5 -16 -37 62 83 -59 101 73 4 -27 50 -55 30
000090 18 aa f8 a4 ca 13 3f 16 0a 28 fa 0f d3 c4 c3 fb
       24 -86 -8 -92 -54 19 63 22 10 40 -6 15 -45 -60 -61 -5
0000a0 ed ff f8 f1 d8 40 47 22 36 61 1e df 24 fb ec e2
       -19 -1 -8 -15 -40 64 71 34 54 97 30 -33 36 -5 -20 -30
0000b0 20 29 33 4d c7 0b bc 44 d8 ff 2e 4d d3 9a e0 ee
       32 41 51 77 -57 11 -68 68 -40 -1 46 77 -45 -102 -32 -18
0000c0 10 03 06 c6 88 58 36 db ef da 58 22 6b f2 6a dc
       16 3 6 -58 -120 88 54 -37 -17 -38 88 34 107 -14 106 -36
0000d0 4f e0 25 13 05 7a fb 3f e7 04 50 35 62 cf 79 db
       79 -32 37 19 5 122 -5 63 -25 4 80 53 98 -49 121 -37
0000e0 d9 f2 d6 24 d7 cf f9 ed f3 29 bc f7 52 5e e1 81
       -39 -14 -42 36 -41 -49 -7 -19 -13 41 -68 -9 82 94 -31 -127
0000f0 ef 4b f1 c9 52 d5 fb 57 ca f9 be 67 e3 f6 05 0d
       -17 75 -15 -55 82 -43 -5 87 -54 -7 -66 103 -29 -10 5 13

tfl.pseudo_qconst1 i1 [128, 256]
000000 22 db e3 f3 a8 14 d4 37 00 d6 00 b2 fb 0a c2 ef
       34 -37 -29 -13 -88 20 -44 55 0 -42 0 -78 -5 10 -62 -17
000010 03 3d b6 00 fb fb 26 42 ea 2a d0 ac 1c ec 05 ab
       3 61 -74 0 -5 -5 38 66 -22 42 -48 -84 28 -20 5 -85
000020 01 ce 8c c4 d7 1c e4 cd 1f 02 fd 00 e6 37 fd 00
       1 -50 -116 -60 -41 28 -28 -51 31 2 -3 0 -26 55 -3 0
000030 bb 31 d8 de f2 24 00 f3 ed 04 00 c0 00 f5 c5 00
       -69 49 -40 -34 -14 36 0 -13 -19 4 0 -64 0 -11 -59 0
000040 fd 00 fa 05 00 c1 aa fd ed 10 f4 00 e0 04 fd e9
       -3 0 -6 5 0 -63 -86 -3 -19 16 -12 0 -32 4 -3 -23
000050 00 dd c2 c2 9b ee 1c dc 03 f4 ee a0 01 f9 23 e8
       0 -35 -62 -62 -101 -18 28 -36 3 -12 -18 -96 1 -7 35 -24
000060 ee f8 31 00 ea cb f7 00 1e c8 11 17 31 fa 00 ff
       -18 -8 49 0 -22 -53 -9 0 30 -56 17 23 49 -6 0 -1
000070 1a e0 ff f9 1b f3 f4 fb 08 0c c1 d1 00 24 00 04
       26 -32 -1 -7 27 -13 -12 -5 8 12 -63 -47 0 36 0 4
000080 e5 0b 03 ea d9 fe 1a cb a7 0e dd ff bf 00 b7 00
       -27 11 3 -22 -39 -2 26 -53 -89 14 -35 -1 -65 0 -73 0
000090 21 a8 fd f6 f4 de ed e5 f3 1e 28 17 81 00 06 ff
       33 -88 -3 -10 -12 -34 -19 -27 -13 30 40 23 -127 0 6 -1
0000a0 02 fb f5 d1 fe 32 27 00 16 0a 28 01 08 f5 34 bf
       2 -5 -11 -47 -2 50 39 0 22 10 40 1 8 -11 52 -65
0000b0 c1 01 eb 00 be f5 06 fc 06 2d f0 b8 f3 fc 1f cf
       -63 1 -21 0 -66 -11 6 -4 6 45 -16 -72 -13 -4 31 -49
0000c0 0c 02 00 fe fc f6 e0 0f d2 f5 01 f5 fd 01 bc 2d
       12 2 0 -2 -4 -10 -32 15 -46 -11 1 -11 -3 1 -68 45
0000d0 3c fa 3f ef fe 00 1c 0c 1c 00 fd 00 42 01 fb fd
       60 -6 63 -17 -2 0 28 12 28 0 -3 0 66 1 -5 -3
0000e0 ef 26 d3 11 07 00 fe af 2d f2 c8 f5 f9 ff d0 fb
       -17 38 -45 17 7 0 -2 -81 45 -14 -56 -11 -7 -1 -48 -5
0000f0 02 fe 00 fc de c9 3c 36 02 ff 03 ff c9 07 d0 f8
       2 -2 0 -4 -34 -55 60 54 2 -1 3 -1 -55 7 -48 -8

sequential_1_1/dense_4_1/MatMul i1 [256, 2000]
000000 f8 00 08 ed 0a f6 f6 f0 fa 00 fc 0b 05 f9 0a 54
       -8 0 8 -19 10 -10 -10 -16 -6 0 -4 11 5 -7 10 84
000010 04 ff ff fc ef f8 1e 0a fc ec fb f6 24 f0 f1 f8
       4 -1 -1 -4 -17 -8 30 10 -4 -20 -5 -10 36 -16 -15 -8
000020 06 0a 00 f2 00 17 fb fc 0a 07 f6 ed 0e fc 0e 24
       6 10 0 -14 0 23 -5 -4 10 7 -10 -19 14 -4 14 36
000030 00 fe f7 00 30 ff 13 00 f5 0c ef 00 02 0f 05 02
       0 -2 -9 0 48 -1 19 0 -11 12 -17 0 2 15 5 2
000040 10 00 00 05 fa 00 04 00 fc f4 07 1b eb fe 01 05
       16 0 0 5 -6 0 4 0 -4 -12 7 27 -21 -2 1 5
000050 ff 01 04 00 00 09 02 00 f5 12 07 01 f5 07 05 02
       -1 1 4 0 0 9 2 0 -11 18 7 1 -11 7 5 2
000060 fe fe 00 fb 11 02 fd 01 f2 03 ee ee 00 00 fb 19
       -2 -2 0 -5 17 2 -3 1 -14 3 -18 -18 0 0 -5 25
000070 f1 18 f3 ff f4 f6 05 04 18 15 f9 f6 e0 00 00 e9
       -15 24 -13 -1 -12 -10 5 4 24 21 -7 -10 -32 0 0 -23
000080 00 1d f6 f6 f7 fa e9 28 18 d5 00 08 c6 16 03 f0
       0 29 -10 -10 -9 -6 -23 40 24 -43 0 8 -58 22 3 -16
000090 00 01 09 ed fc fc 05 ff 0f ff 1f 28 00 fe 11 d9
       0 1 9 -19 -4 -4 5 -1 15 -1 31 40 0 -2 17 -39
0000a0 0d 00 21 ed fb 00 14 eb 19 f4 f6 fc ff fc 17 e4
       13 0 33 -19 -5 0 20 -21 25 -12 -10 -4 -1 -4 23 -28
0000b0 00 fc fa ff fa 04 48 fe fe ff 48 08 09 01 14 02
       0 -4 -6 -1 -6 4 72 -2 -2 -1 72 8 9 1 20 2
0000c0 fb 02 e6 00 09 ed 00 02 f5 fb fa 00 fe fc 00 01
       -5 2 -26 0 9 -19 0 2 -11 -5 -6 0 -2 -4 0 1
0000d0 f9 de f7 0f 30 07 ff f4 ed 01 ff 1e 01 fc fa 02
       -7 -34 -9 15 48 7 -1 -12 -19 1 -1 30 1 -4 -6 2
0000e0 08 f7 00 00 17 ff 00 ee 02 03 00 00 17 fe ff 01
       8 -9 0 0 23 -1 0 -18 2 3 0 0 23 -2 -1 1
0000f0 ff 2f 00 e9 05 00 fc f9 00 04 28 1f 04 0e f3 00
       -1 47 0 -23 5 0 -4 -7 0 4 40 31 4 14 -13 0
